{"keras_version": "2.2.4", "class_name": "Sequential", "backend": "tensorflow", "config": {"layers": [{"class_name": "Conv2D", "config": {"kernel_constraint": null, "dilation_rate": [1, 1], "strides": [1, 1], "use_bias": true, "batch_input_shape": [null, 28, 28, 1], "data_format": "channels_last", "activity_regularizer": null, "kernel_regularizer": null, "name": "conv2d_1", "kernel_size": [3, 3], "bias_constraint": null, "activation": "relu", "bias_regularizer": null, "dtype": "float32", "kernel_initializer": {"class_name": "VarianceScaling", "config": {"distribution": "uniform", "scale": 1.0, "seed": null, "mode": "fan_avg"}}, "padding": "valid", "trainable": true, "filters": 14, "bias_initializer": {"class_name": "Zeros", "config": {}}}}, {"class_name": "MaxPooling2D", "config": {"pool_size": [2, 2], "strides": [2, 2], "data_format": "channels_last", "padding": "valid", "name": "max_pooling2d_1", "trainable": true}}, {"class_name": "Flatten", "config": {"data_format": "channels_last", "trainable": true, "name": "flatten_1"}}, {"class_name": "Dense", "config": {"kernel_constraint": null, "units": 128, "use_bias": true, "activity_regularizer": null, "kernel_regularizer": null, "name": "dense_1", "bias_constraint": null, "activation": "relu", "bias_regularizer": null, "kernel_initializer": {"class_name": "VarianceScaling", "config": {"distribution": "uniform", "scale": 1.0, "seed": null, "mode": "fan_avg"}}, "trainable": true, "bias_initializer": {"class_name": "Zeros", "config": {}}}}, {"class_name": "Dense", "config": {"kernel_constraint": null, "units": 10, "use_bias": true, "activity_regularizer": null, "kernel_regularizer": null, "name": "dense_2", "bias_constraint": null, "activation": "softmax", "bias_regularizer": null, "kernel_initializer": {"class_name": "VarianceScaling", "config": {"distribution": "uniform", "scale": 1.0, "seed": null, "mode": "fan_avg"}}, "trainable": true, "bias_initializer": {"class_name": "Zeros", "config": {}}}}], "name": "sequential_1"}}