{"config": {"layers": [{"config": {"dtype": "float32", "use_bias": true, "strides": [1, 1], "activity_regularizer": null, "kernel_regularizer": null, "bias_regularizer": null, "activation": "relu", "kernel_initializer": {"config": {"mode": "fan_avg", "seed": null, "distribution": "uniform", "scale": 1.0}, "class_name": "VarianceScaling"}, "name": "conv2d_2", "data_format": "channels_last", "dilation_rate": [1, 1], "filters": 14, "trainable": true, "batch_input_shape": [null, 28, 28, 1], "kernel_constraint": null, "kernel_size": [3, 3], "bias_initializer": {"config": {}, "class_name": "Zeros"}, "bias_constraint": null, "padding": "valid"}, "class_name": "Conv2D"}, {"config": {"trainable": true, "strides": [2, 2], "pool_size": [2, 2], "name": "max_pooling2d_2", "data_format": "channels_last", "padding": "valid"}, "class_name": "MaxPooling2D"}, {"config": {"use_bias": true, "strides": [1, 1], "activity_regularizer": null, "kernel_regularizer": null, "bias_regularizer": null, "activation": "relu", "kernel_initializer": {"config": {"mode": "fan_avg", "seed": null, "distribution": "uniform", "scale": 1.0}, "class_name": "VarianceScaling"}, "name": "conv2d_3", "data_format": "channels_last", "dilation_rate": [1, 1], "filters": 14, "trainable": true, "kernel_constraint": null, "kernel_size": [3, 3], "bias_initializer": {"config": {}, "class_name": "Zeros"}, "bias_constraint": null, "padding": "valid"}, "class_name": "Conv2D"}, {"config": {"trainable": true, "strides": [2, 2], "pool_size": [2, 2], "name": "max_pooling2d_3", "data_format": "channels_last", "padding": "valid"}, "class_name": "MaxPooling2D"}, {"config": {"trainable": true, "name": "flatten_2", "data_format": "channels_last"}, "class_name": "Flatten"}, {"config": {"use_bias": true, "activity_regularizer": null, "kernel_regularizer": null, "bias_regularizer": null, "activation": "relu", "kernel_initializer": {"config": {"mode": "fan_avg", "seed": null, "distribution": "uniform", "scale": 1.0}, "class_name": "VarianceScaling"}, "name": "dense_3", "trainable": true, "kernel_constraint": null, "bias_initializer": {"config": {}, "class_name": "Zeros"}, "bias_constraint": null, "units": 128}, "class_name": "Dense"}, {"config": {"use_bias": true, "activity_regularizer": null, "kernel_regularizer": null, "bias_regularizer": null, "activation": "softmax", "kernel_initializer": {"config": {"mode": "fan_avg", "seed": null, "distribution": "uniform", "scale": 1.0}, "class_name": "VarianceScaling"}, "name": "dense_4", "trainable": true, "kernel_constraint": null, "bias_initializer": {"config": {}, "class_name": "Zeros"}, "bias_constraint": null, "units": 3}, "class_name": "Dense"}], "name": "sequential_2"}, "backend": "tensorflow", "class_name": "Sequential", "keras_version": "2.2.4"}