{"backend": "tensorflow", "keras_version": "2.2.4", "config": {"layers": [{"config": {"bias_initializer": {"config": {}, "class_name": "Zeros"}, "kernel_constraint": null, "trainable": true, "padding": "valid", "bias_regularizer": null, "dilation_rate": [1, 1], "dtype": "float32", "activation": "relu", "batch_input_shape": [null, 28, 28, 1], "kernel_regularizer": null, "filters": 14, "kernel_initializer": {"config": {"scale": 1.0, "mode": "fan_avg", "distribution": "uniform", "seed": null}, "class_name": "VarianceScaling"}, "name": "conv2d_2", "strides": [1, 1], "kernel_size": [3, 3], "use_bias": true, "bias_constraint": null, "activity_regularizer": null, "data_format": "channels_last"}, "class_name": "Conv2D"}, {"config": {"pool_size": [2, 2], "trainable": true, "name": "max_pooling2d_2", "strides": [2, 2], "padding": "valid", "data_format": "channels_last"}, "class_name": "MaxPooling2D"}, {"config": {"bias_initializer": {"config": {}, "class_name": "Zeros"}, "kernel_constraint": null, "trainable": true, "padding": "valid", "bias_regularizer": null, "dilation_rate": [1, 1], "activation": "relu", "bias_constraint": null, "kernel_regularizer": null, "filters": 14, "kernel_initializer": {"config": {"scale": 1.0, "mode": "fan_avg", "distribution": "uniform", "seed": null}, "class_name": "VarianceScaling"}, "name": "conv2d_3", "strides": [1, 1], "kernel_size": [3, 3], "use_bias": true, "activity_regularizer": null, "data_format": "channels_last"}, "class_name": "Conv2D"}, {"config": {"pool_size": [2, 2], "trainable": true, "name": "max_pooling2d_3", "strides": [2, 2], "padding": "valid", "data_format": "channels_last"}, "class_name": "MaxPooling2D"}, {"config": {"trainable": true, "name": "flatten_2", "data_format": "channels_last"}, "class_name": "Flatten"}, {"config": {"bias_initializer": {"config": {}, "class_name": "Zeros"}, "kernel_constraint": null, "trainable": true, "bias_regularizer": null, "activation": "relu", "bias_constraint": null, "kernel_regularizer": null, "kernel_initializer": {"config": {"scale": 1.0, "mode": "fan_avg", "distribution": "uniform", "seed": null}, "class_name": "VarianceScaling"}, "name": "dense_3", "activity_regularizer": null, "use_bias": true, "units": 128}, "class_name": "Dense"}, {"config": {"bias_initializer": {"config": {}, "class_name": "Zeros"}, "kernel_constraint": null, "trainable": true, "bias_regularizer": null, "activation": "softmax", "bias_constraint": null, "kernel_regularizer": null, "kernel_initializer": {"config": {"scale": 1.0, "mode": "fan_avg", "distribution": "uniform", "seed": null}, "class_name": "VarianceScaling"}, "name": "dense_4", "activity_regularizer": null, "use_bias": true, "units": 3}, "class_name": "Dense"}], "name": "sequential_2"}, "class_name": "Sequential"}