{"backend": "tensorflow", "keras_version": "2.2.4", "config": {"name": "sequential_1", "layers": [{"config": {"dtype": "float32", "activation": "relu", "name": "conv2d_1", "use_bias": true, "strides": [1, 1], "padding": "valid", "kernel_size": [3, 3], "dilation_rate": [1, 1], "data_format": "channels_last", "bias_initializer": {"config": {}, "class_name": "Zeros"}, "kernel_initializer": {"config": {"scale": 1.0, "mode": "fan_avg", "seed": null, "distribution": "uniform"}, "class_name": "VarianceScaling"}, "kernel_constraint": null, "filters": 14, "trainable": true, "activity_regularizer": null, "batch_input_shape": [null, 28, 28, 1], "bias_constraint": null, "bias_regularizer": null, "kernel_regularizer": null}, "class_name": "Conv2D"}, {"config": {"pool_size": [2, 2], "name": "max_pooling2d_1", "strides": [2, 2], "padding": "valid", "trainable": true, "data_format": "channels_last"}, "class_name": "MaxPooling2D"}, {"config": {"activation": "relu", "name": "conv2d_2", "use_bias": true, "strides": [1, 1], "padding": "valid", "kernel_size": [3, 3], "dilation_rate": [1, 1], "data_format": "channels_last", "bias_initializer": {"config": {}, "class_name": "Zeros"}, "kernel_initializer": {"config": {"scale": 1.0, "mode": "fan_avg", "seed": null, "distribution": "uniform"}, "class_name": "VarianceScaling"}, "kernel_constraint": null, "filters": 14, "trainable": true, "activity_regularizer": null, "bias_constraint": null, "bias_regularizer": null, "kernel_regularizer": null}, "class_name": "Conv2D"}, {"config": {"pool_size": [2, 2], "name": "max_pooling2d_2", "strides": [2, 2], "padding": "valid", "trainable": true, "data_format": "channels_last"}, "class_name": "MaxPooling2D"}, {"config": {"trainable": true, "name": "flatten_1", "data_format": "channels_last"}, "class_name": "Flatten"}, {"config": {"units": 128, "kernel_constraint": null, "name": "dense_1", "use_bias": true, "bias_regularizer": null, "activation": "relu", "trainable": true, "bias_initializer": {"config": {}, "class_name": "Zeros"}, "kernel_initializer": {"config": {"scale": 1.0, "mode": "fan_avg", "seed": null, "distribution": "uniform"}, "class_name": "VarianceScaling"}, "kernel_regularizer": null, "activity_regularizer": null, "bias_constraint": null}, "class_name": "Dense"}, {"config": {"units": 200, "kernel_constraint": null, "name": "dense_2", "use_bias": true, "bias_regularizer": null, "activation": "softmax", "trainable": true, "bias_initializer": {"config": {}, "class_name": "Zeros"}, "kernel_initializer": {"config": {"scale": 1.0, "mode": "fan_avg", "seed": null, "distribution": "uniform"}, "class_name": "VarianceScaling"}, "kernel_regularizer": null, "activity_regularizer": null, "bias_constraint": null}, "class_name": "Dense"}]}, "class_name": "Sequential"}