{"backend": "tensorflow", "class_name": "Sequential", "keras_version": "2.2.4", "config": {"layers": [{"class_name": "Conv2D", "config": {"trainable": true, "padding": "valid", "batch_input_shape": [null, 28, 28, 1], "data_format": "channels_last", "filters": 14, "dtype": "float32", "activation": "relu", "kernel_regularizer": null, "dilation_rate": [1, 1], "bias_constraint": null, "strides": [1, 1], "kernel_constraint": null, "activity_regularizer": null, "kernel_size": [3, 3], "use_bias": true, "bias_initializer": {"class_name": "Zeros", "config": {}}, "bias_regularizer": null, "name": "conv2d_1", "kernel_initializer": {"class_name": "VarianceScaling", "config": {"mode": "fan_avg", "seed": null, "scale": 1.0, "distribution": "uniform"}}}}, {"class_name": "MaxPooling2D", "config": {"trainable": true, "padding": "valid", "data_format": "channels_last", "pool_size": [2, 2], "name": "max_pooling2d_1", "strides": [2, 2]}}, {"class_name": "Conv2D", "config": {"trainable": true, "padding": "valid", "data_format": "channels_last", "filters": 14, "bias_constraint": null, "kernel_regularizer": null, "dilation_rate": [1, 1], "activation": "relu", "strides": [1, 1], "kernel_constraint": null, "activity_regularizer": null, "kernel_size": [3, 3], "use_bias": true, "bias_initializer": {"class_name": "Zeros", "config": {}}, "bias_regularizer": null, "name": "conv2d_2", "kernel_initializer": {"class_name": "VarianceScaling", "config": {"mode": "fan_avg", "seed": null, "scale": 1.0, "distribution": "uniform"}}}}, {"class_name": "MaxPooling2D", "config": {"trainable": true, "padding": "valid", "data_format": "channels_last", "pool_size": [2, 2], "name": "max_pooling2d_2", "strides": [2, 2]}}, {"class_name": "Flatten", "config": {"trainable": true, "data_format": "channels_last", "name": "flatten_1"}}, {"class_name": "Dense", "config": {"trainable": true, "kernel_initializer": {"class_name": "VarianceScaling", "config": {"mode": "fan_avg", "seed": null, "scale": 1.0, "distribution": "uniform"}}, "bias_constraint": null, "activation": "relu", "kernel_constraint": null, "name": "dense_1", "activity_regularizer": null, "units": 128, "bias_initializer": {"class_name": "Zeros", "config": {}}, "bias_regularizer": null, "use_bias": true, "kernel_regularizer": null}}, {"class_name": "Dense", "config": {"trainable": true, "kernel_initializer": {"class_name": "VarianceScaling", "config": {"mode": "fan_avg", "seed": null, "scale": 1.0, "distribution": "uniform"}}, "bias_constraint": null, "activation": "softmax", "kernel_constraint": null, "name": "dense_2", "activity_regularizer": null, "units": 50, "bias_initializer": {"class_name": "Zeros", "config": {}}, "bias_regularizer": null, "use_bias": true, "kernel_regularizer": null}}], "name": "sequential_1"}}