{"class_name": "Sequential", "backend": "tensorflow", "keras_version": "2.2.4", "config": {"name": "sequential_1", "layers": [{"class_name": "Conv2D", "config": {"trainable": true, "use_bias": true, "kernel_constraint": null, "bias_initializer": {"class_name": "Zeros", "config": {}}, "batch_input_shape": [null, 28, 28, 1], "name": "conv2d_1", "filters": 14, "kernel_size": [3, 3], "kernel_initializer": {"class_name": "VarianceScaling", "config": {"distribution": "uniform", "mode": "fan_avg", "seed": null, "scale": 1.0}}, "padding": "valid", "data_format": "channels_last", "activation": "relu", "bias_regularizer": null, "dilation_rate": [1, 1], "dtype": "float32", "activity_regularizer": null, "bias_constraint": null, "kernel_regularizer": null, "strides": [1, 1]}}, {"class_name": "MaxPooling2D", "config": {"data_format": "channels_last", "trainable": true, "pool_size": [2, 2], "name": "max_pooling2d_1", "strides": [2, 2], "padding": "valid"}}, {"class_name": "Conv2D", "config": {"trainable": true, "use_bias": true, "kernel_constraint": null, "bias_initializer": {"class_name": "Zeros", "config": {}}, "name": "conv2d_2", "filters": 14, "kernel_size": [3, 3], "kernel_initializer": {"class_name": "VarianceScaling", "config": {"distribution": "uniform", "mode": "fan_avg", "seed": null, "scale": 1.0}}, "padding": "valid", "data_format": "channels_last", "activation": "relu", "bias_regularizer": null, "dilation_rate": [1, 1], "activity_regularizer": null, "bias_constraint": null, "kernel_regularizer": null, "strides": [1, 1]}}, {"class_name": "MaxPooling2D", "config": {"data_format": "channels_last", "trainable": true, "pool_size": [2, 2], "name": "max_pooling2d_2", "strides": [2, 2], "padding": "valid"}}, {"class_name": "Flatten", "config": {"data_format": "channels_last", "trainable": true, "name": "flatten_1"}}, {"class_name": "Dense", "config": {"units": 128, "trainable": true, "kernel_constraint": null, "bias_initializer": {"class_name": "Zeros", "config": {}}, "name": "dense_1", "use_bias": true, "kernel_initializer": {"class_name": "VarianceScaling", "config": {"distribution": "uniform", "mode": "fan_avg", "seed": null, "scale": 1.0}}, "bias_constraint": null, "activation": "relu", "bias_regularizer": null, "activity_regularizer": null, "kernel_regularizer": null}}, {"class_name": "Dense", "config": {"units": 3, "trainable": true, "kernel_constraint": null, "bias_initializer": {"class_name": "Zeros", "config": {}}, "name": "dense_2", "use_bias": true, "kernel_initializer": {"class_name": "VarianceScaling", "config": {"distribution": "uniform", "mode": "fan_avg", "seed": null, "scale": 1.0}}, "bias_constraint": null, "activation": "softmax", "bias_regularizer": null, "activity_regularizer": null, "kernel_regularizer": null}}]}}