{"backend": "tensorflow", "config": {"name": "sequential_1", "layers": [{"config": {"name": "conv2d_1", "strides": [1, 1], "activity_regularizer": null, "batch_input_shape": [null, 28, 28, 1], "kernel_size": [3, 3], "filters": 14, "activation": "relu", "kernel_constraint": null, "dilation_rate": [1, 1], "kernel_regularizer": null, "trainable": true, "bias_initializer": {"config": {}, "class_name": "Zeros"}, "kernel_initializer": {"config": {"mode": "fan_avg", "distribution": "uniform", "seed": null, "scale": 1.0}, "class_name": "VarianceScaling"}, "data_format": "channels_last", "dtype": "float32", "bias_constraint": null, "use_bias": true, "bias_regularizer": null, "padding": "valid"}, "class_name": "Conv2D"}, {"config": {"name": "max_pooling2d_1", "strides": [2, 2], "data_format": "channels_last", "pool_size": [2, 2], "padding": "valid", "trainable": true}, "class_name": "MaxPooling2D"}, {"config": {"name": "flatten_1", "data_format": "channels_last", "trainable": true}, "class_name": "Flatten"}, {"config": {"name": "dense_1", "activity_regularizer": null, "kernel_constraint": null, "kernel_initializer": {"config": {"mode": "fan_avg", "distribution": "uniform", "seed": null, "scale": 1.0}, "class_name": "VarianceScaling"}, "units": 256, "activation": "relu", "use_bias": true, "trainable": true, "bias_initializer": {"config": {}, "class_name": "Zeros"}, "bias_constraint": null, "kernel_regularizer": null, "bias_regularizer": null}, "class_name": "Dense"}, {"config": {"name": "dense_2", "activity_regularizer": null, "kernel_constraint": null, "kernel_initializer": {"config": {"mode": "fan_avg", "distribution": "uniform", "seed": null, "scale": 1.0}, "class_name": "VarianceScaling"}, "units": 10, "activation": "softmax", "use_bias": true, "trainable": true, "bias_initializer": {"config": {}, "class_name": "Zeros"}, "bias_constraint": null, "kernel_regularizer": null, "bias_regularizer": null}, "class_name": "Dense"}]}, "keras_version": "2.2.4", "class_name": "Sequential"}