{"config": {"name": "sequential_1", "layers": [{"config": {"data_format": "channels_last", "activation": "relu", "name": "conv2d_1", "bias_regularizer": null, "bias_initializer": {"config": {}, "class_name": "Zeros"}, "padding": "valid", "activity_regularizer": null, "kernel_size": [3, 3], "use_bias": true, "dilation_rate": [1, 1], "trainable": true, "batch_input_shape": [null, 28, 28, 1], "kernel_regularizer": null, "strides": [1, 1], "kernel_constraint": null, "filters": 14, "kernel_initializer": {"config": {"distribution": "uniform", "mode": "fan_avg", "seed": null, "scale": 1.0}, "class_name": "VarianceScaling"}, "bias_constraint": null, "dtype": "float32"}, "class_name": "Conv2D"}, {"config": {"data_format": "channels_last", "trainable": true, "name": "max_pooling2d_1", "strides": [2, 2], "padding": "valid", "pool_size": [2, 2]}, "class_name": "MaxPooling2D"}, {"config": {"data_format": "channels_last", "activation": "relu", "kernel_constraint": null, "bias_regularizer": null, "bias_initializer": {"config": {}, "class_name": "Zeros"}, "padding": "valid", "activity_regularizer": null, "kernel_size": [3, 3], "use_bias": true, "dilation_rate": [1, 1], "trainable": true, "kernel_regularizer": null, "strides": [1, 1], "name": "conv2d_2", "filters": 14, "kernel_initializer": {"config": {"distribution": "uniform", "mode": "fan_avg", "seed": null, "scale": 1.0}, "class_name": "VarianceScaling"}, "bias_constraint": null}, "class_name": "Conv2D"}, {"config": {"data_format": "channels_last", "trainable": true, "name": "max_pooling2d_2", "strides": [2, 2], "padding": "valid", "pool_size": [2, 2]}, "class_name": "MaxPooling2D"}, {"config": {"data_format": "channels_last", "trainable": true, "name": "flatten_1"}, "class_name": "Flatten"}, {"config": {"activation": "relu", "name": "dense_1", "bias_initializer": {"config": {}, "class_name": "Zeros"}, "activity_regularizer": null, "use_bias": true, "trainable": true, "kernel_regularizer": null, "kernel_constraint": null, "bias_regularizer": null, "kernel_initializer": {"config": {"distribution": "uniform", "mode": "fan_avg", "seed": null, "scale": 1.0}, "class_name": "VarianceScaling"}, "bias_constraint": null, "units": 128}, "class_name": "Dense"}, {"config": {"activation": "softmax", "name": "dense_2", "bias_initializer": {"config": {}, "class_name": "Zeros"}, "activity_regularizer": null, "use_bias": true, "trainable": true, "kernel_regularizer": null, "kernel_constraint": null, "bias_regularizer": null, "kernel_initializer": {"config": {"distribution": "uniform", "mode": "fan_avg", "seed": null, "scale": 1.0}, "class_name": "VarianceScaling"}, "bias_constraint": null, "units": 100}, "class_name": "Dense"}]}, "keras_version": "2.2.4", "backend": "tensorflow", "class_name": "Sequential"}