{"class_name": "Sequential", "config": {"name": "sequential_1", "layers": [{"class_name": "Conv2D", "config": {"kernel_initializer": {"class_name": "VarianceScaling", "config": {"mode": "fan_avg", "distribution": "uniform", "scale": 1.0, "seed": null}}, "activity_regularizer": null, "name": "conv2d_1", "filters": 14, "bias_constraint": null, "kernel_constraint": null, "strides": [1, 1], "batch_input_shape": [null, 28, 28, 1], "bias_initializer": {"class_name": "Zeros", "config": {}}, "kernel_size": [3, 3], "padding": "valid", "use_bias": true, "dtype": "float32", "trainable": true, "activation": "relu", "kernel_regularizer": null, "bias_regularizer": null, "data_format": "channels_last", "dilation_rate": [1, 1]}}, {"class_name": "MaxPooling2D", "config": {"pool_size": [2, 2], "trainable": true, "strides": [2, 2], "name": "max_pooling2d_1", "data_format": "channels_last", "padding": "valid"}}, {"class_name": "Conv2D", "config": {"kernel_initializer": {"class_name": "VarianceScaling", "config": {"mode": "fan_avg", "distribution": "uniform", "scale": 1.0, "seed": null}}, "activity_regularizer": null, "filters": 14, "bias_constraint": null, "kernel_constraint": null, "strides": [1, 1], "bias_initializer": {"class_name": "Zeros", "config": {}}, "kernel_size": [3, 3], "padding": "valid", "use_bias": true, "name": "conv2d_2", "trainable": true, "activation": "relu", "kernel_regularizer": null, "bias_regularizer": null, "data_format": "channels_last", "dilation_rate": [1, 1]}}, {"class_name": "MaxPooling2D", "config": {"pool_size": [2, 2], "trainable": true, "strides": [2, 2], "name": "max_pooling2d_2", "data_format": "channels_last", "padding": "valid"}}, {"class_name": "Flatten", "config": {"name": "flatten_1", "data_format": "channels_last", "trainable": true}}, {"class_name": "Dense", "config": {"bias_constraint": null, "kernel_regularizer": null, "units": 128, "kernel_constraint": null, "bias_initializer": {"class_name": "Zeros", "config": {}}, "use_bias": true, "kernel_initializer": {"class_name": "VarianceScaling", "config": {"mode": "fan_avg", "distribution": "uniform", "scale": 1.0, "seed": null}}, "name": "dense_1", "trainable": true, "activation": "relu", "activity_regularizer": null, "bias_regularizer": null}}, {"class_name": "Dense", "config": {"bias_constraint": null, "kernel_regularizer": null, "units": 50, "kernel_constraint": null, "bias_initializer": {"class_name": "Zeros", "config": {}}, "use_bias": true, "kernel_initializer": {"class_name": "VarianceScaling", "config": {"mode": "fan_avg", "distribution": "uniform", "scale": 1.0, "seed": null}}, "name": "dense_2", "trainable": true, "activation": "softmax", "activity_regularizer": null, "bias_regularizer": null}}]}, "backend": "tensorflow", "keras_version": "2.2.4"}