{"keras_version": "2.2.4", "class_name": "Sequential", "config": {"name": "sequential_1", "layers": [{"class_name": "Conv2D", "config": {"bias_regularizer": null, "dilation_rate": [1, 1], "kernel_regularizer": null, "data_format": "channels_last", "filters": 14, "batch_input_shape": [null, 28, 28, 1], "kernel_initializer": {"class_name": "VarianceScaling", "config": {"seed": null, "mode": "fan_avg", "distribution": "uniform", "scale": 1.0}}, "activation": "relu", "activity_regularizer": null, "name": "conv2d_1", "use_bias": true, "bias_initializer": {"class_name": "Zeros", "config": {}}, "trainable": true, "kernel_constraint": null, "strides": [1, 1], "dtype": "float32", "kernel_size": [3, 3], "bias_constraint": null, "padding": "valid"}}, {"class_name": "MaxPooling2D", "config": {"name": "max_pooling2d_1", "trainable": true, "pool_size": [2, 2], "strides": [2, 2], "data_format": "channels_last", "padding": "valid"}}, {"class_name": "Conv2D", "config": {"bias_regularizer": null, "dilation_rate": [1, 1], "kernel_regularizer": null, "data_format": "channels_last", "filters": 14, "kernel_initializer": {"class_name": "VarianceScaling", "config": {"seed": null, "mode": "fan_avg", "distribution": "uniform", "scale": 1.0}}, "activation": "relu", "activity_regularizer": null, "name": "conv2d_2", "use_bias": true, "bias_initializer": {"class_name": "Zeros", "config": {}}, "trainable": true, "kernel_constraint": null, "strides": [1, 1], "kernel_size": [3, 3], "bias_constraint": null, "padding": "valid"}}, {"class_name": "MaxPooling2D", "config": {"name": "max_pooling2d_2", "trainable": true, "pool_size": [2, 2], "strides": [2, 2], "data_format": "channels_last", "padding": "valid"}}, {"class_name": "Flatten", "config": {"name": "flatten_1", "trainable": true, "data_format": "channels_last"}}, {"class_name": "Dense", "config": {"activity_regularizer": null, "units": 128, "kernel_regularizer": null, "kernel_initializer": {"class_name": "VarianceScaling", "config": {"seed": null, "mode": "fan_avg", "distribution": "uniform", "scale": 1.0}}, "activation": "relu", "bias_regularizer": null, "name": "dense_1", "use_bias": true, "bias_initializer": {"class_name": "Zeros", "config": {}}, "trainable": true, "kernel_constraint": null, "bias_constraint": null}}, {"class_name": "Dense", "config": {"activity_regularizer": null, "units": 10, "kernel_regularizer": null, "kernel_initializer": {"class_name": "VarianceScaling", "config": {"seed": null, "mode": "fan_avg", "distribution": "uniform", "scale": 1.0}}, "activation": "softmax", "bias_regularizer": null, "name": "dense_2", "use_bias": true, "bias_initializer": {"class_name": "Zeros", "config": {}}, "trainable": true, "kernel_constraint": null, "bias_constraint": null}}]}, "backend": "tensorflow"}