{"backend": "tensorflow", "class_name": "Sequential", "keras_version": "2.2.4", "config": {"layers": [{"class_name": "Conv2D", "config": {"strides": [1, 1], "kernel_initializer": {"class_name": "VarianceScaling", "config": {"mode": "fan_avg", "seed": null, "distribution": "uniform", "scale": 1.0}}, "bias_initializer": {"class_name": "Zeros", "config": {}}, "kernel_size": [3, 3], "trainable": true, "bias_regularizer": null, "padding": "valid", "bias_constraint": null, "name": "conv2d_1", "activity_regularizer": null, "data_format": "channels_last", "use_bias": true, "kernel_regularizer": null, "dtype": "float32", "kernel_constraint": null, "batch_input_shape": [null, 28, 28, 1], "filters": 14, "activation": "relu", "dilation_rate": [1, 1]}}, {"class_name": "MaxPooling2D", "config": {"strides": [2, 2], "data_format": "channels_last", "name": "max_pooling2d_1", "trainable": true, "padding": "valid", "pool_size": [2, 2]}}, {"class_name": "Conv2D", "config": {"strides": [1, 1], "use_bias": true, "dilation_rate": [1, 1], "kernel_size": [3, 3], "trainable": true, "padding": "valid", "bias_constraint": null, "name": "conv2d_2", "activity_regularizer": null, "data_format": "channels_last", "kernel_initializer": {"class_name": "VarianceScaling", "config": {"mode": "fan_avg", "seed": null, "distribution": "uniform", "scale": 1.0}}, "kernel_regularizer": null, "kernel_constraint": null, "bias_regularizer": null, "filters": 14, "activation": "relu", "bias_initializer": {"class_name": "Zeros", "config": {}}}}, {"class_name": "MaxPooling2D", "config": {"strides": [2, 2], "data_format": "channels_last", "name": "max_pooling2d_2", "trainable": true, "padding": "valid", "pool_size": [2, 2]}}, {"class_name": "Flatten", "config": {"trainable": true, "data_format": "channels_last", "name": "flatten_1"}}, {"class_name": "Dense", "config": {"bias_initializer": {"class_name": "Zeros", "config": {}}, "trainable": true, "bias_regularizer": null, "kernel_regularizer": null, "units": 128, "activity_regularizer": null, "kernel_constraint": null, "activation": "relu", "kernel_initializer": {"class_name": "VarianceScaling", "config": {"mode": "fan_avg", "seed": null, "distribution": "uniform", "scale": 1.0}}, "bias_constraint": null, "name": "dense_1", "use_bias": true}}, {"class_name": "Dense", "config": {"bias_initializer": {"class_name": "Zeros", "config": {}}, "trainable": true, "bias_regularizer": null, "kernel_regularizer": null, "units": 10, "activity_regularizer": null, "kernel_constraint": null, "activation": "softmax", "kernel_initializer": {"class_name": "VarianceScaling", "config": {"mode": "fan_avg", "seed": null, "distribution": "uniform", "scale": 1.0}}, "bias_constraint": null, "name": "dense_2", "use_bias": true}}], "name": "sequential_1"}}