{"keras_version": "2.2.4", "backend": "tensorflow", "class_name": "Sequential", "config": {"name": "sequential_2", "layers": [{"class_name": "Conv2D", "config": {"dilation_rate": [1, 1], "bias_initializer": {"class_name": "Zeros", "config": {}}, "trainable": true, "kernel_regularizer": null, "batch_input_shape": [null, 28, 28, 1], "padding": "valid", "dtype": "float32", "kernel_constraint": null, "kernel_size": [3, 3], "use_bias": true, "kernel_initializer": {"class_name": "VarianceScaling", "config": {"distribution": "uniform", "scale": 1.0, "seed": null, "mode": "fan_avg"}}, "activation": "relu", "bias_constraint": null, "name": "conv2d_2", "filters": 14, "bias_regularizer": null, "strides": [1, 1], "data_format": "channels_last", "activity_regularizer": null}}, {"class_name": "MaxPooling2D", "config": {"trainable": true, "name": "max_pooling2d_1", "padding": "valid", "strides": [2, 2], "data_format": "channels_last", "pool_size": [2, 2]}}, {"class_name": "Conv2D", "config": {"dilation_rate": [1, 1], "bias_initializer": {"class_name": "Zeros", "config": {}}, "trainable": true, "kernel_regularizer": null, "padding": "valid", "filters": 14, "kernel_constraint": null, "kernel_size": [3, 3], "use_bias": true, "kernel_initializer": {"class_name": "VarianceScaling", "config": {"distribution": "uniform", "scale": 1.0, "seed": null, "mode": "fan_avg"}}, "activation": "relu", "bias_constraint": null, "name": "conv2d_3", "bias_regularizer": null, "strides": [1, 1], "data_format": "channels_last", "activity_regularizer": null}}, {"class_name": "MaxPooling2D", "config": {"trainable": true, "name": "max_pooling2d_2", "padding": "valid", "strides": [2, 2], "data_format": "channels_last", "pool_size": [2, 2]}}, {"class_name": "Flatten", "config": {"trainable": true, "name": "flatten_2", "data_format": "channels_last"}}, {"class_name": "Dense", "config": {"bias_initializer": {"class_name": "Zeros", "config": {}}, "trainable": true, "kernel_regularizer": null, "kernel_constraint": null, "use_bias": true, "activation": "relu", "bias_constraint": null, "name": "dense_3", "units": 128, "bias_regularizer": null, "kernel_initializer": {"class_name": "VarianceScaling", "config": {"distribution": "uniform", "scale": 1.0, "seed": null, "mode": "fan_avg"}}, "activity_regularizer": null}}, {"class_name": "Dense", "config": {"bias_initializer": {"class_name": "Zeros", "config": {}}, "trainable": true, "kernel_regularizer": null, "kernel_constraint": null, "use_bias": true, "activation": "softmax", "bias_constraint": null, "name": "dense_4", "units": 3, "bias_regularizer": null, "kernel_initializer": {"class_name": "VarianceScaling", "config": {"distribution": "uniform", "scale": 1.0, "seed": null, "mode": "fan_avg"}}, "activity_regularizer": null}}]}}