{"keras_version": "2.2.4", "config": {"layers": [{"config": {"kernel_size": [3, 3], "use_bias": true, "dtype": "float32", "kernel_constraint": null, "batch_input_shape": [null, 28, 28, 1], "dilation_rate": [1, 1], "activation": "relu", "kernel_regularizer": null, "trainable": true, "filters": 14, "padding": "valid", "data_format": "channels_last", "activity_regularizer": null, "kernel_initializer": {"config": {"distribution": "uniform", "seed": null, "scale": 1.0, "mode": "fan_avg"}, "class_name": "VarianceScaling"}, "bias_constraint": null, "name": "conv2d_1", "bias_initializer": {"config": {}, "class_name": "Zeros"}, "strides": [1, 1], "bias_regularizer": null}, "class_name": "Conv2D"}, {"config": {"padding": "valid", "data_format": "channels_last", "pool_size": [2, 2], "name": "max_pooling2d_1", "strides": [2, 2], "trainable": true}, "class_name": "MaxPooling2D"}, {"config": {"kernel_size": [3, 3], "use_bias": true, "kernel_constraint": null, "activity_regularizer": null, "activation": "relu", "kernel_regularizer": null, "dilation_rate": [1, 1], "trainable": true, "filters": 14, "padding": "valid", "data_format": "channels_last", "bias_constraint": null, "kernel_initializer": {"config": {"distribution": "uniform", "seed": null, "scale": 1.0, "mode": "fan_avg"}, "class_name": "VarianceScaling"}, "name": "conv2d_2", "bias_initializer": {"config": {}, "class_name": "Zeros"}, "strides": [1, 1], "bias_regularizer": null}, "class_name": "Conv2D"}, {"config": {"padding": "valid", "data_format": "channels_last", "pool_size": [2, 2], "name": "max_pooling2d_2", "strides": [2, 2], "trainable": true}, "class_name": "MaxPooling2D"}, {"config": {"name": "flatten_1", "data_format": "channels_last", "trainable": true}, "class_name": "Flatten"}, {"config": {"activity_regularizer": null, "use_bias": true, "kernel_constraint": null, "units": 128, "activation": "relu", "kernel_initializer": {"config": {"distribution": "uniform", "seed": null, "scale": 1.0, "mode": "fan_avg"}, "class_name": "VarianceScaling"}, "bias_regularizer": null, "bias_constraint": null, "kernel_regularizer": null, "name": "dense_1", "bias_initializer": {"config": {}, "class_name": "Zeros"}, "trainable": true}, "class_name": "Dense"}, {"config": {"activity_regularizer": null, "use_bias": true, "kernel_constraint": null, "units": 3, "activation": "softmax", "kernel_initializer": {"config": {"distribution": "uniform", "seed": null, "scale": 1.0, "mode": "fan_avg"}, "class_name": "VarianceScaling"}, "bias_regularizer": null, "bias_constraint": null, "kernel_regularizer": null, "name": "dense_2", "bias_initializer": {"config": {}, "class_name": "Zeros"}, "trainable": true}, "class_name": "Dense"}], "name": "sequential_1"}, "class_name": "Sequential", "backend": "tensorflow"}