{"keras_version": "2.2.4", "backend": "tensorflow", "config": {"name": "sequential_1", "layers": [{"config": {"name": "conv2d_1", "bias_regularizer": null, "use_bias": true, "kernel_constraint": null, "bias_constraint": null, "dtype": "float32", "activity_regularizer": null, "padding": "valid", "bias_initializer": {"config": {}, "class_name": "Zeros"}, "batch_input_shape": [null, 28, 28, 1], "data_format": "channels_last", "kernel_regularizer": null, "kernel_size": [3, 3], "filters": 14, "strides": [1, 1], "activation": "relu", "kernel_initializer": {"config": {"distribution": "uniform", "mode": "fan_avg", "scale": 1.0, "seed": null}, "class_name": "VarianceScaling"}, "trainable": true, "dilation_rate": [1, 1]}, "class_name": "Conv2D"}, {"config": {"name": "max_pooling2d_1", "pool_size": [2, 2], "trainable": true, "strides": [2, 2], "padding": "valid", "data_format": "channels_last"}, "class_name": "MaxPooling2D"}, {"config": {"name": "conv2d_2", "use_bias": true, "kernel_constraint": null, "kernel_regularizer": null, "activity_regularizer": null, "padding": "valid", "dilation_rate": [1, 1], "bias_initializer": {"config": {}, "class_name": "Zeros"}, "bias_regularizer": null, "trainable": true, "bias_constraint": null, "activation": "relu", "filters": 14, "strides": [1, 1], "kernel_initializer": {"config": {"distribution": "uniform", "mode": "fan_avg", "scale": 1.0, "seed": null}, "class_name": "VarianceScaling"}, "kernel_size": [3, 3], "data_format": "channels_last"}, "class_name": "Conv2D"}, {"config": {"name": "max_pooling2d_2", "pool_size": [2, 2], "trainable": true, "strides": [2, 2], "padding": "valid", "data_format": "channels_last"}, "class_name": "MaxPooling2D"}, {"config": {"name": "flatten_1", "trainable": true, "data_format": "channels_last"}, "class_name": "Flatten"}, {"config": {"name": "dense_1", "kernel_constraint": null, "bias_constraint": null, "units": 128, "use_bias": true, "bias_initializer": {"config": {}, "class_name": "Zeros"}, "bias_regularizer": null, "trainable": true, "kernel_regularizer": null, "activation": "relu", "kernel_initializer": {"config": {"distribution": "uniform", "mode": "fan_avg", "scale": 1.0, "seed": null}, "class_name": "VarianceScaling"}, "activity_regularizer": null}, "class_name": "Dense"}, {"config": {"name": "dense_2", "kernel_constraint": null, "bias_constraint": null, "units": 300, "use_bias": true, "bias_initializer": {"config": {}, "class_name": "Zeros"}, "bias_regularizer": null, "trainable": true, "kernel_regularizer": null, "activation": "softmax", "kernel_initializer": {"config": {"distribution": "uniform", "mode": "fan_avg", "scale": 1.0, "seed": null}, "class_name": "VarianceScaling"}, "activity_regularizer": null}, "class_name": "Dense"}]}, "class_name": "Sequential"}