{"config": {"layers": [{"config": {"bias_initializer": {"config": {}, "class_name": "Zeros"}, "padding": "valid", "strides": [1, 1], "trainable": true, "dilation_rate": [1, 1], "name": "conv2d_1", "activity_regularizer": null, "use_bias": true, "kernel_size": [3, 3], "bias_regularizer": null, "kernel_initializer": {"config": {"scale": 1.0, "mode": "fan_avg", "distribution": "uniform", "seed": null}, "class_name": "VarianceScaling"}, "batch_input_shape": [null, 28, 28, 1], "kernel_constraint": null, "filters": 14, "kernel_regularizer": null, "dtype": "float32", "bias_constraint": null, "data_format": "channels_last", "activation": "relu"}, "class_name": "Conv2D"}, {"config": {"padding": "valid", "strides": [2, 2], "pool_size": [2, 2], "name": "max_pooling2d_1", "data_format": "channels_last", "trainable": true}, "class_name": "MaxPooling2D"}, {"config": {"bias_initializer": {"config": {}, "class_name": "Zeros"}, "padding": "valid", "strides": [1, 1], "dilation_rate": [1, 1], "name": "conv2d_2", "activity_regularizer": null, "use_bias": true, "kernel_size": [3, 3], "bias_regularizer": null, "kernel_initializer": {"config": {"scale": 1.0, "mode": "fan_avg", "distribution": "uniform", "seed": null}, "class_name": "VarianceScaling"}, "kernel_constraint": null, "filters": 14, "kernel_regularizer": null, "activation": "relu", "bias_constraint": null, "data_format": "channels_last", "trainable": true}, "class_name": "Conv2D"}, {"config": {"padding": "valid", "strides": [2, 2], "pool_size": [2, 2], "name": "max_pooling2d_2", "data_format": "channels_last", "trainable": true}, "class_name": "MaxPooling2D"}, {"config": {"name": "flatten_1", "data_format": "channels_last", "trainable": true}, "class_name": "Flatten"}, {"config": {"bias_initializer": {"config": {}, "class_name": "Zeros"}, "units": 128, "name": "dense_1", "activity_regularizer": null, "use_bias": true, "bias_constraint": null, "kernel_initializer": {"config": {"scale": 1.0, "mode": "fan_avg", "distribution": "uniform", "seed": null}, "class_name": "VarianceScaling"}, "kernel_constraint": null, "kernel_regularizer": null, "activation": "relu", "bias_regularizer": null, "trainable": true}, "class_name": "Dense"}, {"config": {"bias_initializer": {"config": {}, "class_name": "Zeros"}, "units": 10, "name": "dense_2", "activity_regularizer": null, "use_bias": true, "bias_constraint": null, "kernel_initializer": {"config": {"scale": 1.0, "mode": "fan_avg", "distribution": "uniform", "seed": null}, "class_name": "VarianceScaling"}, "kernel_constraint": null, "kernel_regularizer": null, "activation": "softmax", "bias_regularizer": null, "trainable": true}, "class_name": "Dense"}], "name": "sequential_1"}, "keras_version": "2.2.4", "backend": "tensorflow", "class_name": "Sequential"}