{"config": {"layers": [{"config": {"kernel_initializer": {"config": {"seed": null, "scale": 1.0, "mode": "fan_avg", "distribution": "uniform"}, "class_name": "VarianceScaling"}, "name": "conv2d_1", "dilation_rate": [1, 1], "dtype": "float32", "bias_regularizer": null, "strides": [1, 1], "activation": "relu", "trainable": true, "bias_constraint": null, "kernel_size": [3, 3], "data_format": "channels_last", "filters": 14, "activity_regularizer": null, "batch_input_shape": [null, 28, 28, 1], "bias_initializer": {"config": {}, "class_name": "Zeros"}, "use_bias": true, "kernel_constraint": null, "kernel_regularizer": null, "padding": "valid"}, "class_name": "Conv2D"}, {"config": {"name": "max_pooling2d_1", "pool_size": [2, 2], "strides": [2, 2], "trainable": true, "data_format": "channels_last", "padding": "valid"}, "class_name": "MaxPooling2D"}, {"config": {"name": "flatten_1", "trainable": true, "data_format": "channels_last"}, "class_name": "Flatten"}, {"config": {"kernel_initializer": {"config": {"seed": null, "scale": 1.0, "mode": "fan_avg", "distribution": "uniform"}, "class_name": "VarianceScaling"}, "name": "dense_1", "kernel_regularizer": null, "bias_initializer": {"config": {}, "class_name": "Zeros"}, "trainable": true, "bias_constraint": null, "activity_regularizer": null, "activation": "relu", "use_bias": true, "kernel_constraint": null, "units": 64, "bias_regularizer": null}, "class_name": "Dense"}, {"config": {"kernel_initializer": {"config": {"seed": null, "scale": 1.0, "mode": "fan_avg", "distribution": "uniform"}, "class_name": "VarianceScaling"}, "name": "dense_2", "kernel_regularizer": null, "bias_initializer": {"config": {}, "class_name": "Zeros"}, "trainable": true, "bias_constraint": null, "activity_regularizer": null, "activation": "softmax", "use_bias": true, "kernel_constraint": null, "units": 3, "bias_regularizer": null}, "class_name": "Dense"}], "name": "sequential_1"}, "keras_version": "2.2.4", "backend": "tensorflow", "class_name": "Sequential"}