{"backend": "tensorflow", "keras_version": "2.2.4", "class_name": "Sequential", "config": {"name": "sequential_1", "layers": [{"class_name": "Conv2D", "config": {"kernel_regularizer": null, "name": "conv2d_1", "bias_initializer": {"class_name": "Zeros", "config": {}}, "activation": "relu", "batch_input_shape": [null, 28, 28, 1], "trainable": true, "kernel_size": [3, 3], "dilation_rate": [1, 1], "padding": "valid", "bias_constraint": null, "data_format": "channels_last", "activity_regularizer": null, "kernel_constraint": null, "filters": 14, "bias_regularizer": null, "dtype": "float32", "use_bias": true, "kernel_initializer": {"class_name": "VarianceScaling", "config": {"mode": "fan_avg", "scale": 1.0, "distribution": "uniform", "seed": null}}, "strides": [1, 1]}}, {"class_name": "MaxPooling2D", "config": {"pool_size": [2, 2], "name": "max_pooling2d_1", "data_format": "channels_last", "trainable": true, "padding": "valid", "strides": [2, 2]}}, {"class_name": "Conv2D", "config": {"kernel_regularizer": null, "name": "conv2d_2", "activation": "relu", "trainable": true, "kernel_size": [3, 3], "dilation_rate": [1, 1], "padding": "valid", "bias_constraint": null, "data_format": "channels_last", "activity_regularizer": null, "kernel_constraint": null, "bias_initializer": {"class_name": "Zeros", "config": {}}, "bias_regularizer": null, "filters": 14, "use_bias": true, "kernel_initializer": {"class_name": "VarianceScaling", "config": {"mode": "fan_avg", "scale": 1.0, "distribution": "uniform", "seed": null}}, "strides": [1, 1]}}, {"class_name": "MaxPooling2D", "config": {"pool_size": [2, 2], "name": "max_pooling2d_2", "data_format": "channels_last", "trainable": true, "padding": "valid", "strides": [2, 2]}}, {"class_name": "Flatten", "config": {"trainable": true, "name": "flatten_1", "data_format": "channels_last"}}, {"class_name": "Dense", "config": {"kernel_regularizer": null, "name": "dense_1", "activation": "relu", "units": 128, "trainable": true, "bias_regularizer": null, "activity_regularizer": null, "use_bias": true, "bias_initializer": {"class_name": "Zeros", "config": {}}, "bias_constraint": null, "kernel_initializer": {"class_name": "VarianceScaling", "config": {"mode": "fan_avg", "scale": 1.0, "distribution": "uniform", "seed": null}}, "kernel_constraint": null}}, {"class_name": "Dense", "config": {"kernel_regularizer": null, "name": "dense_2", "activation": "softmax", "units": 3, "trainable": true, "bias_regularizer": null, "activity_regularizer": null, "use_bias": true, "bias_initializer": {"class_name": "Zeros", "config": {}}, "bias_constraint": null, "kernel_initializer": {"class_name": "VarianceScaling", "config": {"mode": "fan_avg", "scale": 1.0, "distribution": "uniform", "seed": null}}, "kernel_constraint": null}}]}}