{"class_name": "Sequential", "keras_version": "2.2.4", "config": {"layers": [{"class_name": "Conv2D", "config": {"name": "conv2d_2", "bias_constraint": null, "dilation_rate": [1, 1], "kernel_initializer": {"class_name": "VarianceScaling", "config": {"scale": 1.0, "seed": null, "distribution": "uniform", "mode": "fan_avg"}}, "kernel_regularizer": null, "bias_regularizer": null, "dtype": "float32", "kernel_size": [3, 3], "activity_regularizer": null, "padding": "valid", "filters": 14, "data_format": "channels_last", "activation": "relu", "kernel_constraint": null, "trainable": true, "use_bias": true, "batch_input_shape": [null, 28, 28, 1], "bias_initializer": {"class_name": "Zeros", "config": {}}, "strides": [1, 1]}}, {"class_name": "MaxPooling2D", "config": {"name": "max_pooling2d_2", "pool_size": [2, 2], "padding": "valid", "trainable": true, "data_format": "channels_last", "strides": [2, 2]}}, {"class_name": "Conv2D", "config": {"activation": "relu", "bias_constraint": null, "dilation_rate": [1, 1], "padding": "valid", "kernel_regularizer": null, "bias_regularizer": null, "strides": [1, 1], "kernel_size": [3, 3], "bias_initializer": {"class_name": "Zeros", "config": {}}, "filters": 14, "activity_regularizer": null, "kernel_constraint": null, "trainable": true, "use_bias": true, "kernel_initializer": {"class_name": "VarianceScaling", "config": {"scale": 1.0, "seed": null, "distribution": "uniform", "mode": "fan_avg"}}, "data_format": "channels_last", "name": "conv2d_3"}}, {"class_name": "MaxPooling2D", "config": {"name": "max_pooling2d_3", "pool_size": [2, 2], "padding": "valid", "trainable": true, "data_format": "channels_last", "strides": [2, 2]}}, {"class_name": "Flatten", "config": {"trainable": true, "name": "flatten_2", "data_format": "channels_last"}}, {"class_name": "Dense", "config": {"name": "dense_3", "bias_constraint": null, "activation": "relu", "kernel_regularizer": null, "bias_regularizer": null, "bias_initializer": {"class_name": "Zeros", "config": {}}, "activity_regularizer": null, "kernel_constraint": null, "trainable": true, "use_bias": true, "kernel_initializer": {"class_name": "VarianceScaling", "config": {"scale": 1.0, "seed": null, "distribution": "uniform", "mode": "fan_avg"}}, "units": 128}}, {"class_name": "Dense", "config": {"name": "dense_4", "bias_constraint": null, "activation": "softmax", "kernel_regularizer": null, "bias_regularizer": null, "bias_initializer": {"class_name": "Zeros", "config": {}}, "activity_regularizer": null, "kernel_constraint": null, "trainable": true, "use_bias": true, "kernel_initializer": {"class_name": "VarianceScaling", "config": {"scale": 1.0, "seed": null, "distribution": "uniform", "mode": "fan_avg"}}, "units": 10}}], "name": "sequential_2"}, "backend": "tensorflow"}