{"class_name": "Sequential", "backend": "tensorflow", "keras_version": "2.2.4", "config": {"layers": [{"class_name": "Conv2D", "config": {"name": "conv2d_1", "bias_constraint": null, "bias_initializer": {"class_name": "Zeros", "config": {}}, "kernel_initializer": {"class_name": "VarianceScaling", "config": {"seed": null, "scale": 1.0, "mode": "fan_avg", "distribution": "uniform"}}, "dtype": "float32", "strides": [1, 1], "kernel_regularizer": null, "filters": 14, "kernel_constraint": null, "activity_regularizer": null, "padding": "valid", "batch_input_shape": [null, 28, 28, 1], "kernel_size": [3, 3], "activation": "relu", "dilation_rate": [1, 1], "use_bias": true, "data_format": "channels_last", "trainable": true, "bias_regularizer": null}}, {"class_name": "MaxPooling2D", "config": {"name": "max_pooling2d_1", "strides": [2, 2], "data_format": "channels_last", "pool_size": [2, 2], "trainable": true, "padding": "valid"}}, {"class_name": "Flatten", "config": {"name": "flatten_1", "data_format": "channels_last", "trainable": true}}, {"class_name": "Dense", "config": {"bias_constraint": null, "bias_initializer": {"class_name": "Zeros", "config": {}}, "kernel_initializer": {"class_name": "VarianceScaling", "config": {"seed": null, "scale": 1.0, "mode": "fan_avg", "distribution": "uniform"}}, "kernel_regularizer": null, "kernel_constraint": null, "activity_regularizer": null, "name": "dense_1", "activation": "relu", "bias_regularizer": null, "use_bias": true, "trainable": true, "units": 128}}, {"class_name": "Dense", "config": {"bias_constraint": null, "bias_initializer": {"class_name": "Zeros", "config": {}}, "kernel_initializer": {"class_name": "VarianceScaling", "config": {"seed": null, "scale": 1.0, "mode": "fan_avg", "distribution": "uniform"}}, "kernel_regularizer": null, "kernel_constraint": null, "activity_regularizer": null, "name": "dense_2", "activation": "softmax", "bias_regularizer": null, "use_bias": true, "trainable": true, "units": 3}}], "name": "sequential_1"}}