{"config": {"layers": [{"config": {"use_bias": true, "kernel_regularizer": null, "padding": "valid", "bias_regularizer": null, "name": "conv2d_2", "data_format": "channels_last", "kernel_constraint": null, "trainable": true, "batch_input_shape": [null, 28, 28, 1], "strides": [1, 1], "activation": "relu", "kernel_initializer": {"config": {"mode": "fan_avg", "scale": 1.0, "seed": null, "distribution": "uniform"}, "class_name": "VarianceScaling"}, "bias_constraint": null, "filters": 14, "bias_initializer": {"config": {}, "class_name": "Zeros"}, "dtype": "float32", "kernel_size": [3, 3], "activity_regularizer": null, "dilation_rate": [1, 1]}, "class_name": "Conv2D"}, {"config": {"data_format": "channels_last", "trainable": true, "pool_size": [2, 2], "name": "max_pooling2d_1", "padding": "valid", "strides": [2, 2]}, "class_name": "MaxPooling2D"}, {"config": {"use_bias": true, "kernel_regularizer": null, "padding": "valid", "bias_regularizer": null, "name": "conv2d_3", "dilation_rate": [1, 1], "kernel_constraint": null, "data_format": "channels_last", "strides": [1, 1], "activation": "relu", "kernel_initializer": {"config": {"mode": "fan_avg", "scale": 1.0, "seed": null, "distribution": "uniform"}, "class_name": "VarianceScaling"}, "trainable": true, "filters": 14, "bias_initializer": {"config": {}, "class_name": "Zeros"}, "bias_constraint": null, "kernel_size": [3, 3], "activity_regularizer": null}, "class_name": "Conv2D"}, {"config": {"data_format": "channels_last", "trainable": true, "pool_size": [2, 2], "name": "max_pooling2d_2", "padding": "valid", "strides": [2, 2]}, "class_name": "MaxPooling2D"}, {"config": {"data_format": "channels_last", "trainable": true, "name": "flatten_2"}, "class_name": "Flatten"}, {"config": {"use_bias": true, "activation": "relu", "bias_regularizer": null, "name": "dense_3", "kernel_constraint": null, "trainable": true, "units": 128, "kernel_regularizer": null, "kernel_initializer": {"config": {"mode": "fan_avg", "scale": 1.0, "seed": null, "distribution": "uniform"}, "class_name": "VarianceScaling"}, "bias_constraint": null, "bias_initializer": {"config": {}, "class_name": "Zeros"}, "activity_regularizer": null}, "class_name": "Dense"}, {"config": {"use_bias": true, "activation": "softmax", "bias_regularizer": null, "name": "dense_4", "kernel_constraint": null, "trainable": true, "units": 50, "kernel_regularizer": null, "kernel_initializer": {"config": {"mode": "fan_avg", "scale": 1.0, "seed": null, "distribution": "uniform"}, "class_name": "VarianceScaling"}, "bias_constraint": null, "bias_initializer": {"config": {}, "class_name": "Zeros"}, "activity_regularizer": null}, "class_name": "Dense"}], "name": "sequential_2"}, "keras_version": "2.2.4", "class_name": "Sequential", "backend": "tensorflow"}