{"backend": "tensorflow", "keras_version": "2.2.4", "class_name": "Sequential", "config": {"layers": [{"class_name": "Conv2D", "config": {"use_bias": true, "trainable": true, "batch_input_shape": [null, 28, 28, 1], "bias_constraint": null, "kernel_size": [3, 3], "bias_initializer": {"class_name": "Zeros", "config": {}}, "name": "conv2d_2", "kernel_constraint": null, "kernel_regularizer": null, "data_format": "channels_last", "padding": "valid", "bias_regularizer": null, "kernel_initializer": {"class_name": "VarianceScaling", "config": {"mode": "fan_avg", "distribution": "uniform", "seed": null, "scale": 1.0}}, "activation": "relu", "strides": [1, 1], "filters": 14, "dtype": "float32", "dilation_rate": [1, 1], "activity_regularizer": null}}, {"class_name": "MaxPooling2D", "config": {"trainable": true, "strides": [2, 2], "name": "max_pooling2d_1", "pool_size": [2, 2], "data_format": "channels_last", "padding": "valid"}}, {"class_name": "Conv2D", "config": {"use_bias": true, "trainable": true, "bias_constraint": null, "kernel_size": [3, 3], "bias_initializer": {"class_name": "Zeros", "config": {}}, "name": "conv2d_3", "kernel_constraint": null, "kernel_regularizer": null, "data_format": "channels_last", "padding": "valid", "bias_regularizer": null, "kernel_initializer": {"class_name": "VarianceScaling", "config": {"mode": "fan_avg", "distribution": "uniform", "seed": null, "scale": 1.0}}, "activation": "relu", "strides": [1, 1], "filters": 14, "dilation_rate": [1, 1], "activity_regularizer": null}}, {"class_name": "MaxPooling2D", "config": {"trainable": true, "strides": [2, 2], "name": "max_pooling2d_2", "pool_size": [2, 2], "data_format": "channels_last", "padding": "valid"}}, {"class_name": "Flatten", "config": {"trainable": true, "data_format": "channels_last", "name": "flatten_2"}}, {"class_name": "Dense", "config": {"use_bias": true, "trainable": true, "units": 128, "bias_initializer": {"class_name": "Zeros", "config": {}}, "bias_constraint": null, "kernel_constraint": null, "kernel_regularizer": null, "bias_regularizer": null, "activity_regularizer": null, "activation": "relu", "name": "dense_3", "kernel_initializer": {"class_name": "VarianceScaling", "config": {"mode": "fan_avg", "distribution": "uniform", "seed": null, "scale": 1.0}}}}, {"class_name": "Dense", "config": {"use_bias": true, "trainable": true, "units": 10, "bias_initializer": {"class_name": "Zeros", "config": {}}, "bias_constraint": null, "kernel_constraint": null, "kernel_regularizer": null, "bias_regularizer": null, "activity_regularizer": null, "activation": "softmax", "name": "dense_4", "kernel_initializer": {"class_name": "VarianceScaling", "config": {"mode": "fan_avg", "distribution": "uniform", "seed": null, "scale": 1.0}}}}], "name": "sequential_2"}}