{"backend": "tensorflow", "keras_version": "2.2.4", "class_name": "Sequential", "config": {"name": "sequential_1", "layers": [{"class_name": "Conv2D", "config": {"trainable": true, "activation": "relu", "dtype": "float32", "kernel_initializer": {"class_name": "VarianceScaling", "config": {"mode": "fan_avg", "seed": null, "distribution": "uniform", "scale": 1.0}}, "padding": "valid", "kernel_size": [3, 3], "name": "conv2d_1", "dilation_rate": [1, 1], "data_format": "channels_last", "use_bias": true, "kernel_constraint": null, "bias_constraint": null, "bias_regularizer": null, "strides": [1, 1], "filters": 14, "batch_input_shape": [null, 28, 28, 1], "kernel_regularizer": null, "activity_regularizer": null, "bias_initializer": {"class_name": "Zeros", "config": {}}}}, {"class_name": "MaxPooling2D", "config": {"trainable": true, "pool_size": [2, 2], "padding": "valid", "name": "max_pooling2d_1", "data_format": "channels_last", "strides": [2, 2]}}, {"class_name": "Flatten", "config": {"trainable": true, "name": "flatten_1", "data_format": "channels_last"}}, {"class_name": "Dense", "config": {"trainable": true, "activation": "relu", "kernel_initializer": {"class_name": "VarianceScaling", "config": {"mode": "fan_avg", "seed": null, "distribution": "uniform", "scale": 1.0}}, "name": "dense_1", "units": 128, "use_bias": true, "kernel_constraint": null, "bias_constraint": null, "bias_regularizer": null, "kernel_regularizer": null, "activity_regularizer": null, "bias_initializer": {"class_name": "Zeros", "config": {}}}}, {"class_name": "Dense", "config": {"trainable": true, "activation": "softmax", "kernel_initializer": {"class_name": "VarianceScaling", "config": {"mode": "fan_avg", "seed": null, "distribution": "uniform", "scale": 1.0}}, "name": "dense_2", "units": 50, "use_bias": true, "kernel_constraint": null, "bias_constraint": null, "bias_regularizer": null, "kernel_regularizer": null, "activity_regularizer": null, "bias_initializer": {"class_name": "Zeros", "config": {}}}}]}}