{"keras_version": "2.2.4", "class_name": "Sequential", "config": {"layers": [{"class_name": "Conv2D", "config": {"kernel_regularizer": null, "bias_constraint": null, "filters": 14, "activity_regularizer": null, "dilation_rate": [1, 1], "kernel_constraint": null, "bias_initializer": {"class_name": "Zeros", "config": {}}, "data_format": "channels_last", "kernel_initializer": {"class_name": "VarianceScaling", "config": {"seed": null, "scale": 1.0, "mode": "fan_avg", "distribution": "uniform"}}, "batch_input_shape": [null, 28, 28, 1], "trainable": true, "padding": "valid", "dtype": "float32", "bias_regularizer": null, "strides": [1, 1], "activation": "relu", "use_bias": true, "kernel_size": [3, 3], "name": "conv2d_1"}}, {"class_name": "MaxPooling2D", "config": {"data_format": "channels_last", "name": "max_pooling2d_1", "strides": [2, 2], "pool_size": [2, 2], "trainable": true, "padding": "valid"}}, {"class_name": "Flatten", "config": {"trainable": true, "name": "flatten_1", "data_format": "channels_last"}}, {"class_name": "Dense", "config": {"units": 128, "kernel_regularizer": null, "name": "dense_1", "activity_regularizer": null, "use_bias": true, "kernel_constraint": null, "bias_initializer": {"class_name": "Zeros", "config": {}}, "kernel_initializer": {"class_name": "VarianceScaling", "config": {"seed": null, "scale": 1.0, "mode": "fan_avg", "distribution": "uniform"}}, "bias_regularizer": null, "activation": "relu", "trainable": true, "bias_constraint": null}}, {"class_name": "Dense", "config": {"units": 10, "kernel_regularizer": null, "name": "dense_2", "activity_regularizer": null, "use_bias": true, "kernel_constraint": null, "bias_initializer": {"class_name": "Zeros", "config": {}}, "kernel_initializer": {"class_name": "VarianceScaling", "config": {"seed": null, "scale": 1.0, "mode": "fan_avg", "distribution": "uniform"}}, "bias_regularizer": null, "activation": "softmax", "trainable": true, "bias_constraint": null}}], "name": "sequential_1"}, "backend": "tensorflow"}