{"config": {"layers": [{"config": {"filters": 14, "kernel_constraint": null, "data_format": "channels_last", "batch_input_shape": [null, 28, 28, 1], "activation": "relu", "name": "conv2d_1", "bias_regularizer": null, "kernel_regularizer": null, "padding": "valid", "dtype": "float32", "dilation_rate": [1, 1], "bias_initializer": {"config": {}, "class_name": "Zeros"}, "bias_constraint": null, "kernel_initializer": {"config": {"mode": "fan_avg", "scale": 1.0, "seed": null, "distribution": "uniform"}, "class_name": "VarianceScaling"}, "activity_regularizer": null, "kernel_size": [3, 3], "use_bias": true, "trainable": true, "strides": [1, 1]}, "class_name": "Conv2D"}, {"config": {"data_format": "channels_last", "name": "max_pooling2d_1", "pool_size": [2, 2], "padding": "valid", "trainable": true, "strides": [2, 2]}, "class_name": "MaxPooling2D"}, {"config": {"filters": 14, "data_format": "channels_last", "activation": "relu", "name": "conv2d_2", "bias_regularizer": null, "kernel_regularizer": null, "padding": "valid", "dilation_rate": [1, 1], "bias_initializer": {"config": {}, "class_name": "Zeros"}, "activity_regularizer": null, "bias_constraint": null, "kernel_initializer": {"config": {"mode": "fan_avg", "scale": 1.0, "seed": null, "distribution": "uniform"}, "class_name": "VarianceScaling"}, "strides": [1, 1], "kernel_size": [3, 3], "use_bias": true, "trainable": true, "kernel_constraint": null}, "class_name": "Conv2D"}, {"config": {"data_format": "channels_last", "name": "max_pooling2d_2", "pool_size": [2, 2], "padding": "valid", "trainable": true, "strides": [2, 2]}, "class_name": "MaxPooling2D"}, {"config": {"data_format": "channels_last", "name": "flatten_1", "trainable": true}, "class_name": "Flatten"}, {"config": {"activation": "relu", "bias_regularizer": null, "kernel_regularizer": null, "name": "dense_1", "bias_initializer": {"config": {}, "class_name": "Zeros"}, "bias_constraint": null, "kernel_initializer": {"config": {"mode": "fan_avg", "scale": 1.0, "seed": null, "distribution": "uniform"}, "class_name": "VarianceScaling"}, "kernel_constraint": null, "activity_regularizer": null, "use_bias": true, "trainable": true, "units": 128}, "class_name": "Dense"}, {"config": {"activation": "softmax", "bias_regularizer": null, "kernel_regularizer": null, "name": "dense_2", "bias_initializer": {"config": {}, "class_name": "Zeros"}, "bias_constraint": null, "kernel_initializer": {"config": {"mode": "fan_avg", "scale": 1.0, "seed": null, "distribution": "uniform"}, "class_name": "VarianceScaling"}, "kernel_constraint": null, "activity_regularizer": null, "use_bias": true, "trainable": true, "units": 50}, "class_name": "Dense"}], "name": "sequential_1"}, "class_name": "Sequential", "keras_version": "2.2.4", "backend": "tensorflow"}