{"class_name": "Sequential", "backend": "tensorflow", "config": {"layers": [{"class_name": "Conv2D", "config": {"bias_initializer": {"class_name": "Zeros", "config": {}}, "batch_input_shape": [null, 28, 28, 1], "activity_regularizer": null, "trainable": true, "kernel_initializer": {"class_name": "VarianceScaling", "config": {"distribution": "uniform", "scale": 1.0, "mode": "fan_avg", "seed": null}}, "kernel_size": [3, 3], "dilation_rate": [1, 1], "activation": "relu", "dtype": "float32", "use_bias": true, "bias_regularizer": null, "name": "conv2d_1", "kernel_regularizer": null, "kernel_constraint": null, "bias_constraint": null, "filters": 14, "padding": "valid", "strides": [1, 1], "data_format": "channels_last"}}, {"class_name": "MaxPooling2D", "config": {"name": "max_pooling2d_1", "trainable": true, "pool_size": [2, 2], "padding": "valid", "strides": [2, 2], "data_format": "channels_last"}}, {"class_name": "Conv2D", "config": {"bias_initializer": {"class_name": "Zeros", "config": {}}, "activity_regularizer": null, "trainable": true, "kernel_size": [3, 3], "dilation_rate": [1, 1], "activation": "relu", "use_bias": true, "kernel_initializer": {"class_name": "VarianceScaling", "config": {"distribution": "uniform", "scale": 1.0, "mode": "fan_avg", "seed": null}}, "name": "conv2d_2", "bias_regularizer": null, "kernel_regularizer": null, "kernel_constraint": null, "bias_constraint": null, "filters": 14, "padding": "valid", "strides": [1, 1], "data_format": "channels_last"}}, {"class_name": "MaxPooling2D", "config": {"name": "max_pooling2d_2", "trainable": true, "pool_size": [2, 2], "padding": "valid", "strides": [2, 2], "data_format": "channels_last"}}, {"class_name": "Flatten", "config": {"name": "flatten_1", "trainable": true, "data_format": "channels_last"}}, {"class_name": "Dense", "config": {"bias_constraint": null, "bias_initializer": {"class_name": "Zeros", "config": {}}, "activity_regularizer": null, "trainable": true, "units": 128, "use_bias": true, "kernel_initializer": {"class_name": "VarianceScaling", "config": {"distribution": "uniform", "scale": 1.0, "mode": "fan_avg", "seed": null}}, "name": "dense_1", "kernel_constraint": null, "kernel_regularizer": null, "activation": "relu", "bias_regularizer": null}}, {"class_name": "Dense", "config": {"bias_constraint": null, "bias_initializer": {"class_name": "Zeros", "config": {}}, "activity_regularizer": null, "trainable": true, "units": 3, "use_bias": true, "kernel_initializer": {"class_name": "VarianceScaling", "config": {"distribution": "uniform", "scale": 1.0, "mode": "fan_avg", "seed": null}}, "name": "dense_2", "kernel_constraint": null, "kernel_regularizer": null, "activation": "softmax", "bias_regularizer": null}}], "name": "sequential_1"}, "keras_version": "2.2.4"}