{"keras_version": "2.2.4", "backend": "tensorflow", "class_name": "Sequential", "config": {"layers": [{"class_name": "Conv2D", "config": {"dilation_rate": [1, 1], "activation": "relu", "bias_regularizer": null, "kernel_regularizer": null, "padding": "valid", "filters": 14, "data_format": "channels_last", "bias_initializer": {"class_name": "Zeros", "config": {}}, "trainable": true, "batch_input_shape": [null, 28, 28, 1], "kernel_size": [3, 3], "name": "conv2d_2", "strides": [1, 1], "bias_constraint": null, "activity_regularizer": null, "dtype": "float32", "kernel_initializer": {"class_name": "VarianceScaling", "config": {"scale": 1.0, "seed": null, "distribution": "uniform", "mode": "fan_avg"}}, "use_bias": true, "kernel_constraint": null}}, {"class_name": "MaxPooling2D", "config": {"name": "max_pooling2d_2", "padding": "valid", "data_format": "channels_last", "strides": [2, 2], "pool_size": [2, 2], "trainable": true}}, {"class_name": "Conv2D", "config": {"dilation_rate": [1, 1], "activation": "relu", "bias_regularizer": null, "kernel_regularizer": null, "padding": "valid", "filters": 14, "data_format": "channels_last", "bias_initializer": {"class_name": "Zeros", "config": {}}, "trainable": true, "bias_constraint": null, "kernel_size": [3, 3], "name": "conv2d_3", "strides": [1, 1], "activity_regularizer": null, "kernel_initializer": {"class_name": "VarianceScaling", "config": {"scale": 1.0, "seed": null, "distribution": "uniform", "mode": "fan_avg"}}, "use_bias": true, "kernel_constraint": null}}, {"class_name": "MaxPooling2D", "config": {"name": "max_pooling2d_3", "padding": "valid", "data_format": "channels_last", "strides": [2, 2], "pool_size": [2, 2], "trainable": true}}, {"class_name": "Flatten", "config": {"trainable": true, "name": "flatten_2", "data_format": "channels_last"}}, {"class_name": "Dense", "config": {"activation": "relu", "bias_regularizer": null, "kernel_regularizer": null, "kernel_constraint": null, "trainable": true, "kernel_initializer": {"class_name": "VarianceScaling", "config": {"scale": 1.0, "seed": null, "distribution": "uniform", "mode": "fan_avg"}}, "bias_initializer": {"class_name": "Zeros", "config": {}}, "activity_regularizer": null, "bias_constraint": null, "units": 128, "use_bias": true, "name": "dense_3"}}, {"class_name": "Dense", "config": {"activation": "softmax", "bias_regularizer": null, "kernel_regularizer": null, "kernel_constraint": null, "trainable": true, "kernel_initializer": {"class_name": "VarianceScaling", "config": {"scale": 1.0, "seed": null, "distribution": "uniform", "mode": "fan_avg"}}, "bias_initializer": {"class_name": "Zeros", "config": {}}, "activity_regularizer": null, "bias_constraint": null, "units": 10, "use_bias": true, "name": "dense_4"}}], "name": "sequential_2"}}