{"keras_version": "2.2.4", "class_name": "Sequential", "backend": "tensorflow", "config": {"name": "sequential_1", "layers": [{"class_name": "Conv2D", "config": {"data_format": "channels_last", "activity_regularizer": null, "trainable": true, "dtype": "float32", "use_bias": true, "filters": 14, "dilation_rate": [1, 1], "name": "conv2d_1", "bias_constraint": null, "batch_input_shape": [null, 28, 28, 1], "activation": "relu", "kernel_size": [3, 3], "strides": [1, 1], "bias_initializer": {"class_name": "Zeros", "config": {}}, "kernel_initializer": {"class_name": "VarianceScaling", "config": {"mode": "fan_avg", "distribution": "uniform", "scale": 1.0, "seed": null}}, "bias_regularizer": null, "kernel_constraint": null, "kernel_regularizer": null, "padding": "valid"}}, {"class_name": "MaxPooling2D", "config": {"data_format": "channels_last", "strides": [2, 2], "name": "max_pooling2d_1", "pool_size": [2, 2], "trainable": true, "padding": "valid"}}, {"class_name": "Conv2D", "config": {"data_format": "channels_last", "activity_regularizer": null, "trainable": true, "name": "conv2d_2", "use_bias": true, "filters": 14, "dilation_rate": [1, 1], "bias_constraint": null, "activation": "relu", "kernel_size": [3, 3], "strides": [1, 1], "bias_initializer": {"class_name": "Zeros", "config": {}}, "kernel_initializer": {"class_name": "VarianceScaling", "config": {"mode": "fan_avg", "distribution": "uniform", "scale": 1.0, "seed": null}}, "bias_regularizer": null, "kernel_constraint": null, "kernel_regularizer": null, "padding": "valid"}}, {"class_name": "MaxPooling2D", "config": {"data_format": "channels_last", "strides": [2, 2], "name": "max_pooling2d_2", "pool_size": [2, 2], "trainable": true, "padding": "valid"}}, {"class_name": "Flatten", "config": {"data_format": "channels_last", "name": "flatten_1", "trainable": true}}, {"class_name": "Dense", "config": {"activity_regularizer": null, "use_bias": true, "trainable": true, "bias_constraint": null, "activation": "relu", "units": 128, "bias_initializer": {"class_name": "Zeros", "config": {}}, "kernel_constraint": null, "kernel_initializer": {"class_name": "VarianceScaling", "config": {"mode": "fan_avg", "distribution": "uniform", "scale": 1.0, "seed": null}}, "bias_regularizer": null, "name": "dense_1", "kernel_regularizer": null}}, {"class_name": "Dense", "config": {"activity_regularizer": null, "use_bias": true, "trainable": true, "bias_constraint": null, "activation": "softmax", "units": 3, "bias_initializer": {"class_name": "Zeros", "config": {}}, "kernel_constraint": null, "kernel_initializer": {"class_name": "VarianceScaling", "config": {"mode": "fan_avg", "distribution": "uniform", "scale": 1.0, "seed": null}}, "bias_regularizer": null, "name": "dense_2", "kernel_regularizer": null}}]}}