{"keras_version": "2.2.4", "backend": "tensorflow", "class_name": "Sequential", "config": {"layers": [{"class_name": "Conv2D", "config": {"activity_regularizer": null, "name": "conv2d_1", "trainable": true, "batch_input_shape": [null, 28, 28, 1], "activation": "relu", "kernel_size": [3, 3], "data_format": "channels_last", "bias_initializer": {"class_name": "Zeros", "config": {}}, "padding": "valid", "strides": [1, 1], "bias_constraint": null, "dtype": "float32", "kernel_regularizer": null, "bias_regularizer": null, "kernel_constraint": null, "filters": 14, "kernel_initializer": {"class_name": "VarianceScaling", "config": {"distribution": "uniform", "scale": 1.0, "mode": "fan_avg", "seed": null}}, "dilation_rate": [1, 1], "use_bias": true}}, {"class_name": "MaxPooling2D", "config": {"name": "max_pooling2d_1", "trainable": true, "padding": "valid", "strides": [2, 2], "pool_size": [2, 2], "data_format": "channels_last"}}, {"class_name": "Flatten", "config": {"name": "flatten_1", "data_format": "channels_last", "trainable": true}}, {"class_name": "Dense", "config": {"activity_regularizer": null, "name": "dense_1", "kernel_initializer": {"class_name": "VarianceScaling", "config": {"distribution": "uniform", "scale": 1.0, "mode": "fan_avg", "seed": null}}, "activation": "relu", "trainable": true, "units": 128, "kernel_regularizer": null, "bias_constraint": null, "bias_initializer": {"class_name": "Zeros", "config": {}}, "bias_regularizer": null, "kernel_constraint": null, "use_bias": true}}, {"class_name": "Dense", "config": {"activity_regularizer": null, "name": "dense_2", "kernel_initializer": {"class_name": "VarianceScaling", "config": {"distribution": "uniform", "scale": 1.0, "mode": "fan_avg", "seed": null}}, "activation": "softmax", "trainable": true, "units": 50, "kernel_regularizer": null, "bias_constraint": null, "bias_initializer": {"class_name": "Zeros", "config": {}}, "bias_regularizer": null, "kernel_constraint": null, "use_bias": true}}], "name": "sequential_1"}}