{"backend": "tensorflow", "class_name": "Sequential", "config": {"layers": [{"class_name": "Conv2D", "config": {"data_format": "channels_last", "trainable": true, "name": "conv2d_1", "activation": "relu", "filters": 14, "padding": "valid", "kernel_size": [3, 3], "kernel_regularizer": null, "batch_input_shape": [null, 28, 28, 1], "kernel_constraint": null, "bias_regularizer": null, "dtype": "float32", "use_bias": true, "activity_regularizer": null, "kernel_initializer": {"class_name": "VarianceScaling", "config": {"seed": null, "distribution": "uniform", "scale": 1.0, "mode": "fan_avg"}}, "bias_initializer": {"class_name": "Zeros", "config": {}}, "dilation_rate": [1, 1], "bias_constraint": null, "strides": [1, 1]}}, {"class_name": "MaxPooling2D", "config": {"data_format": "channels_last", "trainable": true, "name": "max_pooling2d_1", "pool_size": [2, 2], "padding": "valid", "strides": [2, 2]}}, {"class_name": "Flatten", "config": {"data_format": "channels_last", "trainable": true, "name": "flatten_1"}}, {"class_name": "Dense", "config": {"trainable": true, "name": "dense_1", "activation": "relu", "bias_regularizer": null, "kernel_regularizer": null, "kernel_constraint": null, "use_bias": true, "bias_constraint": null, "kernel_initializer": {"class_name": "VarianceScaling", "config": {"seed": null, "distribution": "uniform", "scale": 1.0, "mode": "fan_avg"}}, "bias_initializer": {"class_name": "Zeros", "config": {}}, "activity_regularizer": null, "units": 128}}, {"class_name": "Dense", "config": {"trainable": true, "name": "dense_2", "activation": "softmax", "bias_regularizer": null, "kernel_regularizer": null, "kernel_constraint": null, "use_bias": true, "bias_constraint": null, "kernel_initializer": {"class_name": "VarianceScaling", "config": {"seed": null, "distribution": "uniform", "scale": 1.0, "mode": "fan_avg"}}, "bias_initializer": {"class_name": "Zeros", "config": {}}, "activity_regularizer": null, "units": 200}}], "name": "sequential_1"}, "keras_version": "2.2.4"}