{"backend": "tensorflow", "class_name": "Sequential", "config": {"name": "sequential_1", "layers": [{"class_name": "Conv2D", "config": {"kernel_size": [3, 3], "name": "conv2d_1", "kernel_regularizer": null, "dtype": "float32", "kernel_constraint": null, "strides": [1, 1], "dilation_rate": [1, 1], "kernel_initializer": {"class_name": "VarianceScaling", "config": {"distribution": "uniform", "scale": 1.0, "mode": "fan_avg", "seed": null}}, "filters": 14, "bias_initializer": {"class_name": "Zeros", "config": {}}, "bias_constraint": null, "use_bias": true, "activity_regularizer": null, "activation": "relu", "data_format": "channels_last", "batch_input_shape": [null, 28, 28, 1], "bias_regularizer": null, "trainable": true, "padding": "valid"}}, {"class_name": "MaxPooling2D", "config": {"strides": [2, 2], "name": "max_pooling2d_1", "data_format": "channels_last", "trainable": true, "padding": "valid", "pool_size": [2, 2]}}, {"class_name": "Conv2D", "config": {"kernel_size": [3, 3], "name": "conv2d_2", "kernel_regularizer": null, "kernel_constraint": null, "strides": [1, 1], "dilation_rate": [1, 1], "kernel_initializer": {"class_name": "VarianceScaling", "config": {"distribution": "uniform", "scale": 1.0, "mode": "fan_avg", "seed": null}}, "filters": 14, "bias_initializer": {"class_name": "Zeros", "config": {}}, "bias_constraint": null, "use_bias": true, "activity_regularizer": null, "activation": "relu", "data_format": "channels_last", "bias_regularizer": null, "trainable": true, "padding": "valid"}}, {"class_name": "MaxPooling2D", "config": {"strides": [2, 2], "name": "max_pooling2d_2", "data_format": "channels_last", "trainable": true, "padding": "valid", "pool_size": [2, 2]}}, {"class_name": "Flatten", "config": {"trainable": true, "name": "flatten_1", "data_format": "channels_last"}}, {"class_name": "Dense", "config": {"name": "dense_1", "kernel_regularizer": null, "kernel_constraint": null, "activation": "relu", "kernel_initializer": {"class_name": "VarianceScaling", "config": {"distribution": "uniform", "scale": 1.0, "mode": "fan_avg", "seed": null}}, "activity_regularizer": null, "bias_constraint": null, "use_bias": true, "bias_initializer": {"class_name": "Zeros", "config": {}}, "units": 128, "trainable": true, "bias_regularizer": null}}, {"class_name": "Dense", "config": {"name": "dense_2", "kernel_regularizer": null, "kernel_constraint": null, "activation": "softmax", "kernel_initializer": {"class_name": "VarianceScaling", "config": {"distribution": "uniform", "scale": 1.0, "mode": "fan_avg", "seed": null}}, "activity_regularizer": null, "bias_constraint": null, "use_bias": true, "bias_initializer": {"class_name": "Zeros", "config": {}}, "units": 50, "trainable": true, "bias_regularizer": null}}]}, "keras_version": "2.2.4"}