{"backend": "tensorflow", "config": {"name": "sequential_1", "layers": [{"class_name": "Conv2D", "config": {"padding": "valid", "batch_input_shape": [null, 28, 28, 1], "filters": 14, "bias_initializer": {"class_name": "Zeros", "config": {}}, "use_bias": true, "data_format": "channels_last", "kernel_size": [3, 3], "kernel_regularizer": null, "activity_regularizer": null, "name": "conv2d_1", "dtype": "float32", "dilation_rate": [1, 1], "bias_regularizer": null, "strides": [1, 1], "kernel_constraint": null, "kernel_initializer": {"class_name": "VarianceScaling", "config": {"scale": 1.0, "distribution": "uniform", "seed": null, "mode": "fan_avg"}}, "bias_constraint": null, "activation": "relu", "trainable": true}}, {"class_name": "MaxPooling2D", "config": {"name": "max_pooling2d_1", "padding": "valid", "trainable": true, "pool_size": [2, 2], "data_format": "channels_last", "strides": [2, 2]}}, {"class_name": "Conv2D", "config": {"padding": "valid", "filters": 14, "bias_initializer": {"class_name": "Zeros", "config": {}}, "use_bias": true, "data_format": "channels_last", "kernel_size": [3, 3], "kernel_regularizer": null, "activity_regularizer": null, "name": "conv2d_2", "kernel_initializer": {"class_name": "VarianceScaling", "config": {"scale": 1.0, "distribution": "uniform", "seed": null, "mode": "fan_avg"}}, "dilation_rate": [1, 1], "bias_regularizer": null, "strides": [1, 1], "kernel_constraint": null, "activation": "relu", "bias_constraint": null, "trainable": true}}, {"class_name": "MaxPooling2D", "config": {"name": "max_pooling2d_2", "padding": "valid", "trainable": true, "pool_size": [2, 2], "data_format": "channels_last", "strides": [2, 2]}}, {"class_name": "Flatten", "config": {"name": "flatten_1", "data_format": "channels_last", "trainable": true}}, {"class_name": "Dense", "config": {"kernel_regularizer": null, "bias_initializer": {"class_name": "Zeros", "config": {}}, "use_bias": true, "kernel_constraint": null, "activity_regularizer": null, "name": "dense_1", "activation": "relu", "bias_regularizer": null, "units": 128, "bias_constraint": null, "kernel_initializer": {"class_name": "VarianceScaling", "config": {"scale": 1.0, "distribution": "uniform", "seed": null, "mode": "fan_avg"}}, "trainable": true}}, {"class_name": "Dense", "config": {"kernel_regularizer": null, "bias_initializer": {"class_name": "Zeros", "config": {}}, "use_bias": true, "kernel_constraint": null, "activity_regularizer": null, "name": "dense_2", "activation": "softmax", "bias_regularizer": null, "units": 3, "bias_constraint": null, "kernel_initializer": {"class_name": "VarianceScaling", "config": {"scale": 1.0, "distribution": "uniform", "seed": null, "mode": "fan_avg"}}, "trainable": true}}]}, "keras_version": "2.2.4", "class_name": "Sequential"}