{"class_name": "Sequential", "keras_version": "2.2.4", "config": {"layers": [{"class_name": "Conv2D", "config": {"kernel_constraint": null, "padding": "valid", "filters": 14, "trainable": true, "bias_regularizer": null, "strides": [1, 1], "bias_initializer": {"class_name": "Zeros", "config": {}}, "kernel_initializer": {"class_name": "VarianceScaling", "config": {"mode": "fan_avg", "seed": null, "distribution": "uniform", "scale": 1.0}}, "batch_input_shape": [null, 28, 28, 1], "kernel_regularizer": null, "activation": "relu", "dilation_rate": [1, 1], "activity_regularizer": null, "use_bias": true, "dtype": "float32", "name": "conv2d_1", "bias_constraint": null, "kernel_size": [3, 3], "data_format": "channels_last"}}, {"class_name": "MaxPooling2D", "config": {"pool_size": [2, 2], "padding": "valid", "trainable": true, "name": "max_pooling2d_1", "strides": [2, 2], "data_format": "channels_last"}}, {"class_name": "Conv2D", "config": {"kernel_constraint": null, "padding": "valid", "filters": 14, "trainable": true, "bias_regularizer": null, "strides": [1, 1], "bias_initializer": {"class_name": "Zeros", "config": {}}, "kernel_initializer": {"class_name": "VarianceScaling", "config": {"mode": "fan_avg", "seed": null, "distribution": "uniform", "scale": 1.0}}, "kernel_regularizer": null, "activation": "relu", "dilation_rate": [1, 1], "activity_regularizer": null, "use_bias": true, "name": "conv2d_2", "bias_constraint": null, "kernel_size": [3, 3], "data_format": "channels_last"}}, {"class_name": "MaxPooling2D", "config": {"pool_size": [2, 2], "padding": "valid", "trainable": true, "name": "max_pooling2d_2", "strides": [2, 2], "data_format": "channels_last"}}, {"class_name": "Flatten", "config": {"name": "flatten_1", "trainable": true, "data_format": "channels_last"}}, {"class_name": "Dense", "config": {"kernel_constraint": null, "trainable": true, "units": 128, "bias_regularizer": null, "bias_initializer": {"class_name": "Zeros", "config": {}}, "kernel_initializer": {"class_name": "VarianceScaling", "config": {"mode": "fan_avg", "seed": null, "distribution": "uniform", "scale": 1.0}}, "kernel_regularizer": null, "activation": "relu", "activity_regularizer": null, "use_bias": true, "name": "dense_1", "bias_constraint": null}}, {"class_name": "Dense", "config": {"kernel_constraint": null, "trainable": true, "units": 10, "bias_regularizer": null, "bias_initializer": {"class_name": "Zeros", "config": {}}, "kernel_initializer": {"class_name": "VarianceScaling", "config": {"mode": "fan_avg", "seed": null, "distribution": "uniform", "scale": 1.0}}, "kernel_regularizer": null, "activation": "softmax", "activity_regularizer": null, "use_bias": true, "name": "dense_2", "bias_constraint": null}}], "name": "sequential_1"}, "backend": "tensorflow"}