{"config": {"name": "sequential_1", "layers": [{"class_name": "Conv2D", "config": {"trainable": true, "bias_regularizer": null, "name": "conv2d_1", "bias_constraint": null, "batch_input_shape": [null, 28, 28, 1], "bias_initializer": {"class_name": "Zeros", "config": {}}, "activity_regularizer": null, "strides": [1, 1], "dtype": "float32", "kernel_constraint": null, "filters": 14, "dilation_rate": [1, 1], "use_bias": true, "kernel_initializer": {"class_name": "VarianceScaling", "config": {"distribution": "uniform", "seed": null, "scale": 1.0, "mode": "fan_avg"}}, "kernel_regularizer": null, "data_format": "channels_last", "padding": "valid", "activation": "relu", "kernel_size": [3, 3]}}, {"class_name": "MaxPooling2D", "config": {"trainable": true, "pool_size": [2, 2], "padding": "valid", "data_format": "channels_last", "name": "max_pooling2d_1", "strides": [2, 2]}}, {"class_name": "Flatten", "config": {"trainable": true, "data_format": "channels_last", "name": "flatten_1"}}, {"class_name": "Dense", "config": {"trainable": true, "bias_regularizer": null, "units": 256, "bias_constraint": null, "bias_initializer": {"class_name": "Zeros", "config": {}}, "activity_regularizer": null, "kernel_constraint": null, "kernel_initializer": {"class_name": "VarianceScaling", "config": {"distribution": "uniform", "seed": null, "scale": 1.0, "mode": "fan_avg"}}, "use_bias": true, "kernel_regularizer": null, "name": "dense_1", "activation": "relu"}}, {"class_name": "Dense", "config": {"trainable": true, "bias_regularizer": null, "units": 3, "bias_constraint": null, "bias_initializer": {"class_name": "Zeros", "config": {}}, "activity_regularizer": null, "kernel_constraint": null, "kernel_initializer": {"class_name": "VarianceScaling", "config": {"distribution": "uniform", "seed": null, "scale": 1.0, "mode": "fan_avg"}}, "use_bias": true, "kernel_regularizer": null, "name": "dense_2", "activation": "softmax"}}]}, "backend": "tensorflow", "keras_version": "2.2.4", "class_name": "Sequential"}