{"class_name": "Sequential", "backend": "tensorflow", "keras_version": "2.2.4", "config": {"layers": [{"class_name": "Conv2D", "config": {"activity_regularizer": null, "data_format": "channels_last", "strides": [1, 1], "activation": "relu", "use_bias": true, "dilation_rate": [1, 1], "kernel_regularizer": null, "bias_initializer": {"class_name": "Zeros", "config": {}}, "dtype": "float32", "batch_input_shape": [null, 28, 28, 1], "kernel_initializer": {"class_name": "VarianceScaling", "config": {"mode": "fan_avg", "scale": 1.0, "distribution": "uniform", "seed": null}}, "kernel_size": [3, 3], "bias_constraint": null, "filters": 14, "name": "conv2d_1", "trainable": true, "kernel_constraint": null, "padding": "valid", "bias_regularizer": null}}, {"class_name": "MaxPooling2D", "config": {"pool_size": [2, 2], "data_format": "channels_last", "strides": [2, 2], "name": "max_pooling2d_1", "trainable": true, "padding": "valid"}}, {"class_name": "Conv2D", "config": {"activity_regularizer": null, "data_format": "channels_last", "strides": [1, 1], "activation": "relu", "use_bias": true, "dilation_rate": [1, 1], "kernel_regularizer": null, "bias_initializer": {"class_name": "Zeros", "config": {}}, "bias_regularizer": null, "kernel_initializer": {"class_name": "VarianceScaling", "config": {"mode": "fan_avg", "scale": 1.0, "distribution": "uniform", "seed": null}}, "kernel_size": [3, 3], "bias_constraint": null, "filters": 14, "name": "conv2d_2", "trainable": true, "kernel_constraint": null, "padding": "valid"}}, {"class_name": "MaxPooling2D", "config": {"pool_size": [2, 2], "data_format": "channels_last", "strides": [2, 2], "name": "max_pooling2d_2", "trainable": true, "padding": "valid"}}, {"class_name": "Flatten", "config": {"data_format": "channels_last", "name": "flatten_1", "trainable": true}}, {"class_name": "Dense", "config": {"activity_regularizer": null, "activation": "relu", "use_bias": true, "kernel_regularizer": null, "bias_regularizer": null, "kernel_initializer": {"class_name": "VarianceScaling", "config": {"mode": "fan_avg", "scale": 1.0, "distribution": "uniform", "seed": null}}, "bias_constraint": null, "name": "dense_1", "trainable": true, "kernel_constraint": null, "bias_initializer": {"class_name": "Zeros", "config": {}}, "units": 128}}, {"class_name": "Dense", "config": {"activity_regularizer": null, "activation": "softmax", "use_bias": true, "kernel_regularizer": null, "bias_regularizer": null, "kernel_initializer": {"class_name": "VarianceScaling", "config": {"mode": "fan_avg", "scale": 1.0, "distribution": "uniform", "seed": null}}, "bias_constraint": null, "name": "dense_2", "trainable": true, "kernel_constraint": null, "bias_initializer": {"class_name": "Zeros", "config": {}}, "units": 10}}], "name": "sequential_1"}}