{"backend": "tensorflow", "class_name": "Sequential", "config": {"layers": [{"class_name": "Conv2D", "config": {"bias_regularizer": null, "data_format": "channels_last", "kernel_constraint": null, "name": "conv2d_1", "filters": 14, "bias_constraint": null, "batch_input_shape": [null, 28, 28, 1], "dilation_rate": [1, 1], "dtype": "float32", "use_bias": true, "kernel_size": [3, 3], "padding": "valid", "kernel_initializer": {"class_name": "VarianceScaling", "config": {"distribution": "uniform", "scale": 1.0, "seed": null, "mode": "fan_avg"}}, "strides": [1, 1], "activity_regularizer": null, "trainable": true, "activation": "relu", "bias_initializer": {"class_name": "Zeros", "config": {}}, "kernel_regularizer": null}}, {"class_name": "MaxPooling2D", "config": {"padding": "valid", "data_format": "channels_last", "pool_size": [2, 2], "name": "max_pooling2d_1", "strides": [2, 2], "trainable": true}}, {"class_name": "Flatten", "config": {"data_format": "channels_last", "name": "flatten_1", "trainable": true}}, {"class_name": "Dense", "config": {"bias_initializer": {"class_name": "Zeros", "config": {}}, "bias_regularizer": null, "use_bias": true, "kernel_constraint": null, "name": "dense_1", "bias_constraint": null, "trainable": true, "kernel_initializer": {"class_name": "VarianceScaling", "config": {"distribution": "uniform", "scale": 1.0, "seed": null, "mode": "fan_avg"}}, "activity_regularizer": null, "activation": "relu", "units": 64, "kernel_regularizer": null}}, {"class_name": "Dense", "config": {"bias_initializer": {"class_name": "Zeros", "config": {}}, "bias_regularizer": null, "use_bias": true, "kernel_constraint": null, "name": "dense_2", "bias_constraint": null, "trainable": true, "kernel_initializer": {"class_name": "VarianceScaling", "config": {"distribution": "uniform", "scale": 1.0, "seed": null, "mode": "fan_avg"}}, "activity_regularizer": null, "activation": "softmax", "units": 10, "kernel_regularizer": null}}], "name": "sequential_1"}, "keras_version": "2.2.4"}