{"backend": "tensorflow", "keras_version": "2.2.4", "config": {"name": "sequential_2", "layers": [{"config": {"bias_constraint": null, "name": "conv2d_2", "strides": [1, 1], "dtype": "float32", "trainable": true, "padding": "valid", "kernel_regularizer": null, "use_bias": true, "kernel_initializer": {"config": {"mode": "fan_avg", "distribution": "uniform", "scale": 1.0, "seed": null}, "class_name": "VarianceScaling"}, "data_format": "channels_last", "bias_regularizer": null, "filters": 14, "activation": "relu", "bias_initializer": {"config": {}, "class_name": "Zeros"}, "dilation_rate": [1, 1], "kernel_constraint": null, "kernel_size": [3, 3], "activity_regularizer": null, "batch_input_shape": [null, 28, 28, 1]}, "class_name": "Conv2D"}, {"config": {"data_format": "channels_last", "name": "max_pooling2d_2", "strides": [2, 2], "trainable": true, "pool_size": [2, 2], "padding": "valid"}, "class_name": "MaxPooling2D"}, {"config": {"bias_constraint": null, "name": "conv2d_3", "strides": [1, 1], "trainable": true, "padding": "valid", "kernel_regularizer": null, "use_bias": true, "kernel_initializer": {"config": {"mode": "fan_avg", "distribution": "uniform", "scale": 1.0, "seed": null}, "class_name": "VarianceScaling"}, "data_format": "channels_last", "bias_regularizer": null, "filters": 14, "activation": "relu", "bias_initializer": {"config": {}, "class_name": "Zeros"}, "dilation_rate": [1, 1], "kernel_constraint": null, "activity_regularizer": null, "kernel_size": [3, 3]}, "class_name": "Conv2D"}, {"config": {"data_format": "channels_last", "name": "max_pooling2d_3", "strides": [2, 2], "trainable": true, "pool_size": [2, 2], "padding": "valid"}, "class_name": "MaxPooling2D"}, {"config": {"data_format": "channels_last", "trainable": true, "name": "flatten_2"}, "class_name": "Flatten"}, {"config": {"name": "dense_3", "trainable": true, "kernel_constraint": null, "kernel_regularizer": null, "use_bias": true, "kernel_initializer": {"config": {"mode": "fan_avg", "distribution": "uniform", "scale": 1.0, "seed": null}, "class_name": "VarianceScaling"}, "bias_regularizer": null, "activation": "relu", "bias_initializer": {"config": {}, "class_name": "Zeros"}, "activity_regularizer": null, "units": 128, "bias_constraint": null}, "class_name": "Dense"}, {"config": {"name": "dense_4", "trainable": true, "kernel_constraint": null, "kernel_regularizer": null, "use_bias": true, "kernel_initializer": {"config": {"mode": "fan_avg", "distribution": "uniform", "scale": 1.0, "seed": null}, "class_name": "VarianceScaling"}, "bias_regularizer": null, "activation": "softmax", "bias_initializer": {"config": {}, "class_name": "Zeros"}, "activity_regularizer": null, "units": 50, "bias_constraint": null}, "class_name": "Dense"}]}, "class_name": "Sequential"}