{"backend": "tensorflow", "config": {"layers": [{"config": {"name": "conv2d_1", "kernel_regularizer": null, "strides": [1, 1], "filters": 14, "bias_constraint": null, "kernel_size": [3, 3], "trainable": true, "activation": "relu", "bias_regularizer": null, "padding": "valid", "dilation_rate": [1, 1], "dtype": "float32", "use_bias": true, "data_format": "channels_last", "bias_initializer": {"config": {}, "class_name": "Zeros"}, "activity_regularizer": null, "batch_input_shape": [null, 28, 28, 1], "kernel_constraint": null, "kernel_initializer": {"config": {"scale": 1.0, "distribution": "uniform", "seed": null, "mode": "fan_avg"}, "class_name": "VarianceScaling"}}, "class_name": "Conv2D"}, {"config": {"pool_size": [2, 2], "padding": "valid", "strides": [2, 2], "data_format": "channels_last", "name": "max_pooling2d_1", "trainable": true}, "class_name": "MaxPooling2D"}, {"config": {"trainable": true, "name": "flatten_1", "data_format": "channels_last"}, "class_name": "Flatten"}, {"config": {"name": "dense_1", "kernel_regularizer": null, "bias_constraint": null, "trainable": true, "activation": "relu", "bias_regularizer": null, "bias_initializer": {"config": {}, "class_name": "Zeros"}, "use_bias": true, "units": 64, "activity_regularizer": null, "kernel_constraint": null, "kernel_initializer": {"config": {"scale": 1.0, "distribution": "uniform", "seed": null, "mode": "fan_avg"}, "class_name": "VarianceScaling"}}, "class_name": "Dense"}, {"config": {"name": "dense_2", "kernel_regularizer": null, "bias_constraint": null, "trainable": true, "activation": "softmax", "bias_regularizer": null, "bias_initializer": {"config": {}, "class_name": "Zeros"}, "use_bias": true, "units": 50, "activity_regularizer": null, "kernel_constraint": null, "kernel_initializer": {"config": {"scale": 1.0, "distribution": "uniform", "seed": null, "mode": "fan_avg"}, "class_name": "VarianceScaling"}}, "class_name": "Dense"}], "name": "sequential_1"}, "keras_version": "2.2.4", "class_name": "Sequential"}