{"class_name": "Sequential", "backend": "tensorflow", "config": {"layers": [{"class_name": "Conv2D", "config": {"kernel_constraint": null, "kernel_initializer": {"class_name": "VarianceScaling", "config": {"mode": "fan_avg", "scale": 1.0, "distribution": "uniform", "seed": null}}, "filters": 14, "batch_input_shape": [null, 28, 28, 1], "strides": [1, 1], "activity_regularizer": null, "data_format": "channels_last", "bias_regularizer": null, "dtype": "float32", "bias_initializer": {"class_name": "Zeros", "config": {}}, "use_bias": true, "bias_constraint": null, "kernel_regularizer": null, "name": "conv2d_1", "padding": "valid", "kernel_size": [3, 3], "activation": "relu", "trainable": true, "dilation_rate": [1, 1]}}, {"class_name": "MaxPooling2D", "config": {"strides": [2, 2], "name": "max_pooling2d_1", "data_format": "channels_last", "padding": "valid", "trainable": true, "pool_size": [2, 2]}}, {"class_name": "Conv2D", "config": {"kernel_constraint": null, "kernel_initializer": {"class_name": "VarianceScaling", "config": {"mode": "fan_avg", "scale": 1.0, "distribution": "uniform", "seed": null}}, "filters": 14, "kernel_regularizer": null, "strides": [1, 1], "activity_regularizer": null, "data_format": "channels_last", "bias_regularizer": null, "bias_initializer": {"class_name": "Zeros", "config": {}}, "use_bias": true, "bias_constraint": null, "name": "conv2d_2", "padding": "valid", "kernel_size": [3, 3], "activation": "relu", "trainable": true, "dilation_rate": [1, 1]}}, {"class_name": "MaxPooling2D", "config": {"strides": [2, 2], "name": "max_pooling2d_2", "data_format": "channels_last", "padding": "valid", "trainable": true, "pool_size": [2, 2]}}, {"class_name": "Flatten", "config": {"data_format": "channels_last", "trainable": true, "name": "flatten_1"}}, {"class_name": "Dense", "config": {"kernel_constraint": null, "kernel_initializer": {"class_name": "VarianceScaling", "config": {"mode": "fan_avg", "scale": 1.0, "distribution": "uniform", "seed": null}}, "kernel_regularizer": null, "activity_regularizer": null, "bias_regularizer": null, "name": "dense_1", "bias_initializer": {"class_name": "Zeros", "config": {}}, "use_bias": true, "bias_constraint": null, "units": 128, "trainable": true, "activation": "relu"}}, {"class_name": "Dense", "config": {"kernel_constraint": null, "kernel_initializer": {"class_name": "VarianceScaling", "config": {"mode": "fan_avg", "scale": 1.0, "distribution": "uniform", "seed": null}}, "kernel_regularizer": null, "activity_regularizer": null, "bias_regularizer": null, "name": "dense_2", "bias_initializer": {"class_name": "Zeros", "config": {}}, "use_bias": true, "bias_constraint": null, "units": 50, "trainable": true, "activation": "softmax"}}], "name": "sequential_1"}, "keras_version": "2.2.4"}