{"config": {"name": "sequential_1", "layers": [{"config": {"dilation_rate": [1, 1], "use_bias": true, "name": "conv2d_1", "bias_regularizer": null, "bias_constraint": null, "data_format": "channels_last", "strides": [1, 1], "bias_initializer": {"config": {}, "class_name": "Zeros"}, "activity_regularizer": null, "filters": 14, "kernel_constraint": null, "kernel_initializer": {"config": {"scale": 1.0, "seed": null, "distribution": "uniform", "mode": "fan_avg"}, "class_name": "VarianceScaling"}, "trainable": true, "activation": "relu", "kernel_regularizer": null, "padding": "valid", "kernel_size": [3, 3], "dtype": "float32", "batch_input_shape": [null, 28, 28, 1]}, "class_name": "Conv2D"}, {"config": {"name": "max_pooling2d_1", "trainable": true, "data_format": "channels_last", "padding": "valid", "strides": [2, 2], "pool_size": [2, 2]}, "class_name": "MaxPooling2D"}, {"config": {"name": "flatten_1", "data_format": "channels_last", "trainable": true}, "class_name": "Flatten"}, {"config": {"bias_initializer": {"config": {}, "class_name": "Zeros"}, "use_bias": true, "name": "dense_1", "bias_constraint": null, "kernel_constraint": null, "units": 128, "activity_regularizer": null, "kernel_initializer": {"config": {"scale": 1.0, "seed": null, "distribution": "uniform", "mode": "fan_avg"}, "class_name": "VarianceScaling"}, "trainable": true, "bias_regularizer": null, "kernel_regularizer": null, "activation": "relu"}, "class_name": "Dense"}, {"config": {"bias_initializer": {"config": {}, "class_name": "Zeros"}, "use_bias": true, "name": "dense_2", "bias_constraint": null, "kernel_constraint": null, "units": 3, "activity_regularizer": null, "kernel_initializer": {"config": {"scale": 1.0, "seed": null, "distribution": "uniform", "mode": "fan_avg"}, "class_name": "VarianceScaling"}, "trainable": true, "bias_regularizer": null, "kernel_regularizer": null, "activation": "softmax"}, "class_name": "Dense"}]}, "backend": "tensorflow", "keras_version": "2.2.4", "class_name": "Sequential"}