{"class_name": "Sequential", "backend": "tensorflow", "keras_version": "2.2.4", "config": {"name": "sequential_1", "layers": [{"class_name": "Conv2D", "config": {"kernel_initializer": {"class_name": "VarianceScaling", "config": {"scale": 1.0, "distribution": "uniform", "seed": null, "mode": "fan_avg"}}, "bias_initializer": {"class_name": "Zeros", "config": {}}, "data_format": "channels_last", "trainable": true, "batch_input_shape": [null, 28, 28, 1], "dtype": "float32", "kernel_regularizer": null, "bias_regularizer": null, "name": "conv2d_1", "bias_constraint": null, "strides": [1, 1], "filters": 14, "padding": "valid", "dilation_rate": [1, 1], "activation": "relu", "kernel_size": [3, 3], "kernel_constraint": null, "use_bias": true, "activity_regularizer": null}}, {"class_name": "MaxPooling2D", "config": {"data_format": "channels_last", "strides": [2, 2], "pool_size": [2, 2], "trainable": true, "name": "max_pooling2d_1", "padding": "valid"}}, {"class_name": "Conv2D", "config": {"kernel_initializer": {"class_name": "VarianceScaling", "config": {"scale": 1.0, "distribution": "uniform", "seed": null, "mode": "fan_avg"}}, "bias_initializer": {"class_name": "Zeros", "config": {}}, "data_format": "channels_last", "kernel_size": [3, 3], "kernel_regularizer": null, "bias_regularizer": null, "name": "conv2d_2", "bias_constraint": null, "strides": [1, 1], "filters": 14, "padding": "valid", "dilation_rate": [1, 1], "activation": "relu", "kernel_constraint": null, "use_bias": true, "trainable": true, "activity_regularizer": null}}, {"class_name": "MaxPooling2D", "config": {"data_format": "channels_last", "strides": [2, 2], "pool_size": [2, 2], "trainable": true, "name": "max_pooling2d_2", "padding": "valid"}}, {"class_name": "Flatten", "config": {"data_format": "channels_last", "trainable": true, "name": "flatten_1"}}, {"class_name": "Dense", "config": {"kernel_initializer": {"class_name": "VarianceScaling", "config": {"scale": 1.0, "distribution": "uniform", "seed": null, "mode": "fan_avg"}}, "bias_initializer": {"class_name": "Zeros", "config": {}}, "kernel_regularizer": null, "bias_regularizer": null, "name": "dense_1", "bias_constraint": null, "trainable": true, "units": 128, "activation": "relu", "kernel_constraint": null, "use_bias": true, "activity_regularizer": null}}, {"class_name": "Dense", "config": {"kernel_initializer": {"class_name": "VarianceScaling", "config": {"scale": 1.0, "distribution": "uniform", "seed": null, "mode": "fan_avg"}}, "bias_initializer": {"class_name": "Zeros", "config": {}}, "kernel_regularizer": null, "bias_regularizer": null, "name": "dense_2", "bias_constraint": null, "trainable": true, "units": 100, "activation": "softmax", "kernel_constraint": null, "use_bias": true, "activity_regularizer": null}}]}}