{"keras_version": "2.2.4", "config": {"layers": [{"config": {"batch_input_shape": [null, 28, 28, 1], "activity_regularizer": null, "filters": 14, "kernel_initializer": {"config": {"scale": 1.0, "distribution": "uniform", "mode": "fan_avg", "seed": null}, "class_name": "VarianceScaling"}, "padding": "valid", "data_format": "channels_last", "kernel_size": [3, 3], "strides": [1, 1], "kernel_constraint": null, "dtype": "float32", "bias_regularizer": null, "activation": "relu", "kernel_regularizer": null, "bias_initializer": {"config": {}, "class_name": "Zeros"}, "bias_constraint": null, "dilation_rate": [1, 1], "trainable": true, "name": "conv2d_2", "use_bias": true}, "class_name": "Conv2D"}, {"config": {"trainable": true, "padding": "valid", "pool_size": [2, 2], "strides": [2, 2], "data_format": "channels_last", "name": "max_pooling2d_2"}, "class_name": "MaxPooling2D"}, {"config": {"activity_regularizer": null, "filters": 14, "kernel_initializer": {"config": {"scale": 1.0, "distribution": "uniform", "mode": "fan_avg", "seed": null}, "class_name": "VarianceScaling"}, "padding": "valid", "kernel_constraint": null, "kernel_size": [3, 3], "strides": [1, 1], "data_format": "channels_last", "bias_regularizer": null, "activation": "relu", "kernel_regularizer": null, "bias_initializer": {"config": {}, "class_name": "Zeros"}, "bias_constraint": null, "dilation_rate": [1, 1], "trainable": true, "name": "conv2d_3", "use_bias": true}, "class_name": "Conv2D"}, {"config": {"trainable": true, "padding": "valid", "pool_size": [2, 2], "strides": [2, 2], "data_format": "channels_last", "name": "max_pooling2d_3"}, "class_name": "MaxPooling2D"}, {"config": {"trainable": true, "data_format": "channels_last", "name": "flatten_2"}, "class_name": "Flatten"}, {"config": {"activity_regularizer": null, "activation": "relu", "bias_regularizer": null, "bias_constraint": null, "kernel_constraint": null, "units": 128, "kernel_regularizer": null, "bias_initializer": {"config": {}, "class_name": "Zeros"}, "trainable": true, "use_bias": true, "name": "dense_3", "kernel_initializer": {"config": {"scale": 1.0, "distribution": "uniform", "mode": "fan_avg", "seed": null}, "class_name": "VarianceScaling"}}, "class_name": "Dense"}, {"config": {"activity_regularizer": null, "activation": "softmax", "bias_regularizer": null, "bias_constraint": null, "kernel_constraint": null, "units": 50, "kernel_regularizer": null, "bias_initializer": {"config": {}, "class_name": "Zeros"}, "trainable": true, "use_bias": true, "name": "dense_4", "kernel_initializer": {"config": {"scale": 1.0, "distribution": "uniform", "mode": "fan_avg", "seed": null}, "class_name": "VarianceScaling"}}, "class_name": "Dense"}], "name": "sequential_2"}, "class_name": "Sequential", "backend": "tensorflow"}