{"config": {"layers": [{"config": {"bias_initializer": {"config": {}, "class_name": "Zeros"}, "dtype": "float32", "use_bias": true, "strides": [1, 1], "batch_input_shape": [null, 28, 28, 1], "activation": "relu", "activity_regularizer": null, "dilation_rate": [1, 1], "trainable": true, "kernel_regularizer": null, "kernel_constraint": null, "kernel_initializer": {"config": {"distribution": "uniform", "mode": "fan_avg", "seed": null, "scale": 1.0}, "class_name": "VarianceScaling"}, "data_format": "channels_last", "name": "conv2d_1", "kernel_size": [3, 3], "filters": 14, "bias_constraint": null, "bias_regularizer": null, "padding": "valid"}, "class_name": "Conv2D"}, {"config": {"data_format": "channels_last", "padding": "valid", "name": "max_pooling2d_1", "pool_size": [2, 2], "trainable": true, "strides": [2, 2]}, "class_name": "MaxPooling2D"}, {"config": {"trainable": true, "data_format": "channels_last", "name": "flatten_1"}, "class_name": "Flatten"}, {"config": {"bias_initializer": {"config": {}, "class_name": "Zeros"}, "use_bias": true, "name": "dense_1", "kernel_regularizer": null, "activity_regularizer": null, "trainable": true, "activation": "relu", "kernel_constraint": null, "units": 128, "bias_constraint": null, "kernel_initializer": {"config": {"distribution": "uniform", "mode": "fan_avg", "seed": null, "scale": 1.0}, "class_name": "VarianceScaling"}, "bias_regularizer": null}, "class_name": "Dense"}, {"config": {"bias_initializer": {"config": {}, "class_name": "Zeros"}, "use_bias": true, "name": "dense_2", "kernel_regularizer": null, "activity_regularizer": null, "trainable": true, "activation": "softmax", "kernel_constraint": null, "units": 100, "bias_constraint": null, "kernel_initializer": {"config": {"distribution": "uniform", "mode": "fan_avg", "seed": null, "scale": 1.0}, "class_name": "VarianceScaling"}, "bias_regularizer": null}, "class_name": "Dense"}], "name": "sequential_1"}, "class_name": "Sequential", "backend": "tensorflow", "keras_version": "2.2.4"}